highway_env_GE_DQN_CLMHA/model/clmha_model.pth (torch, 250166 bytes, 15 tensors)

cnn.0.weight f4 [32, 8, 3]
000000 f4 d3 08 3e 90 43 9d 3c 30 d1 03 bd fa cc 8d bd
       0.13362104 0.019197255 -0.03218192 -0.06923862
000010 a0 f2 22 3e 78 44 32 be ec 4d 0a 3d 50 78 86 bd
       0.15912867 -0.17408931 0.03376572 -0.065659165
000020 70 fa 12 bd d4 f2 19 3e e6 06 0b be 60 dc 5f 3c
       -0.035883367 0.15034038 -0.1357685 0.013663381
000030 aa 04 2d 3e 16 c9 24 be a4 d6 88 3d 75 e8 50 be
       0.1689631 -0.16092333 0.066815645 -0.20401175
000040 02 28 ed bd e3 c0 a4 bd 24 df 80 3d 78 23 07 3e
       -0.115798965 -0.08044603 0.06292561 0.13197124
000050 54 68 37 bd d0 c6 98 3d 88 5b e3 3d 36 38 0a 3e
       -0.04477723 0.074597955 0.111014426 0.13498005
000060 d0 e0 76 3c f4 5b a7 3d 88 d4 f4 3d e0 79 71 3c
       0.015068248 0.081718355 0.119545996 0.01473853
000070 d3 cd 18 be 72 2e 2a 3e 80 45 93 bb 40 74 7c bc
       -0.14922266 0.1661928 -0.004494369 -0.015408576
000080 00 49 f4 3d c3 de f2 bd f7 20 d7 bd 87 d8 43 be
       0.11927986 -0.11858895 -0.105043344 -0.19125567
000090 60 05 fc 3c 78 0f 00 3e b8 f6 8e bd 06 d1 21 be
       0.030764282 0.12505901 -0.069806516 -0.15802392
0000a0 e8 c9 3f be a8 fd 78 3d ec 93 03 3e e8 06 2e be
       -0.18729365 0.06078878 0.12849396 -0.16994822
0000b0 58 bf 83 bc a6 3e 10 3e 42 41 11 be 58 06 83 bd
       -0.01608245 0.14086398 -0.1418505 -0.06397694
0000c0 e0 71 6f 3c 4d 43 a7 bd c8 14 5a 3d 38 7a 65 3d
       0.014614552 -0.081671335 0.053242475 0.05602476
0000d0 08 3f 30 3e 48 d4 d5 bc b0 f3 88 3c 58 34 e5 bc
       0.17211545 -0.0261022 0.016717762 -0.027979061
0000e0 a1 82 ed bd 8e 6a 0a 3e ec db 98 3d f0 15 4c 3e
       -0.11597181 0.1351721 0.07463822 0.19930243
0000f0 54 63 af bd 24 17 8f bd f8 54 13 bd 7a 16 26 3e
       -0.08563867 -0.069868356 -0.035969704 0.16219512
000100 28 4a 10 bd 22 05 00 be 65 20 bf bd f4 a6 08 bd
       -0.03522697 -0.12501958 -0.09332351 -0.033362344
000110 bc 4f dd 3d e4 9b 3e be 18 97 d5 bd 20 a9 3b 3c
       0.10806224 -0.18614155 -0.104292095 0.011453897
000120 30 a3 d6 3d 16 f0 20 3e 48 2e 7a bd 66 e2 13 3e
       0.10480344 0.15716586 -0.061079293 0.14441833
000130 b0 b2 24 3d b0 2f e4 bc 02 38 e4 bd a0 76 dc 3d
       0.040209472 -0.02785477 -0.11143495 0.107648134
000140 54 80 3b bd 18 de 8b bc 6f df b4 bd fc ee 07 bd
       -0.04577668 -0.017073676 -0.08831679 -0.033186898
000150 0a 62 33 3e 74 5b 3e be 30 f5 cb 3c 8c 89 2c be
       0.17517868 -0.18589574 0.024897188 -0.16849345
000160 e0 0a c8 bb 10 2c 7c 3d 83 2a da bd 4c e9 1d 3e
       -0.006104812 0.06156546 -0.1065264 0.15421027
000170 3c 3f 05 be d6 c1 0b 3e 80 6e e5 3a 30 50 da 3d
       -0.13012403 0.13648161 0.0017504245 0.10659826
000180 18 f2 fc 3c 78 e0 f7 3c 48 7d 11 3d 06 0e 4f be
       0.030877158 0.030258402 0.035519868 -0.20220193
000190 ec f9 cb 3d 5e f2 e1 bd 9c 99 4a 3e 6a 34 cb bd
       0.09959778 -0.11032556 0.1978516 -0.099221066
0001a0 fc 94 36 be 72 4c da bd 10 5c 0c 3c 10 22 4c 3d
       -0.1783027 -0.10659112 0.008566871 0.049837172
0001b0 2c 61 aa 3d ea 78 92 bd e0 11 83 3d 8b 49 c1 bd
       0.08319315 -0.07151969 0.06399894 -0.09437855
0001c0 72 94 21 3e 4a 65 34 3e 3a 32 84 bd 98 d2 b8 bc
       0.15779284 0.17616764 -0.064548925 -0.022561356
0001d0 f0 96 39 3e bc 39 fb 3d 8c ca 23 3d f0 b9 00 3e
       0.18123984 0.12266871 0.039988086 0.1257093
0001e0 c6 f0 11 be ca cf 89 bd 50 60 00 bc 98 34 9a bd
       -0.14252004 -0.06729086 -0.007835463 -0.07529563
0001f0 20 fb 81 bb 12 ad 2e be 20 bb 65 bd fc 01 3b 3d
       -0.003966704 -0.17058209 -0.05608666 0.04565619
000200 80 9b 8a 3c c4 aa e5 3d e1 80 f6 bd 8e b2 0a 3e
       0.016919851 0.112142116 -0.120363005 0.13544676
000210 58 c5 87 bc b0 83 fd 3d bc 38 67 bd 74 90 7c bd
       -0.016573593 0.12378633 -0.05645059 -0.0616612
000220 80 ba c9 ba c4 c2 ea 3d 30 63 a3 bc 58 3c 97 bc
       -0.0015390664 0.1146293 -0.019944757 -0.018461391
000230 00 8a 3e 3d 64 8a 0b bd 6d e8 50 be b0 e9 88 3d
       0.046518326 -0.034067526 -0.20401163 0.06685197
000240 30 6d 03 3e b4 f5 ad bd c4 39 18 3e 00 b0 c0 38
       0.1283462 -0.0849413 0.14865786 9.188056e-05
000250 98 0a fd 3d 91 7a 21 be b4 da 08 be 7c 04 4a 3e
       0.12355536 -0.15769412 -0.13364679 0.19728273
000260 f4 dc f8 3d ee 33 17 be 30 5e 80 bd d6 7a 94 bd
       0.121515185 -0.14765903 -0.06267965 -0.072499916
000270 f7 c4 4e be aa 66 04 be 30 80 68 3d 93 b2 23 be
       -0.20192324 -0.12929788 0.056762874 -0.1598609
000280 73 58 c9 bd 3b df d8 bd 9e 09 18 be 28 f6 0d 3e
       -0.098313235 -0.10589453 -0.14847419 0.13863432
000290 a8 10 79 bd 68 90 f5 3c f7 42 40 be 80 2e d2 bd
       -0.0608069 0.029976085 -0.18775545 -0.102627754
0002a0 48 b4 09 be d4 79 4a 3e d1 3b dd bd e4 0b 9f bd
       -0.13447678 0.19773036 -0.10802425 -0.0776594
0002b0 b0 b0 6e bd 43 23 10 be 2e 2b 35 3e ae 4a 4a be
       -0.05827397 -0.14075951 0.17692253 -0.1975505
0002c0 4c ce 2d 3d 76 66 8c bd f8 b4 4f bd 44 f7 d8 3d
       0.04243307 -0.068554804 -0.050709695 0.10594037
0002d0 ee 90 23 be e8 fe 20 bd ab 4e 45 be 6c 50 33 be
       -0.15973255 -0.039305598 -0.1926829 -0.17511147
0002e0 ea e6 9b bd 80 17 1a bd a0 b9 19 bc a0 6a e1 bd
       -0.07612403 -0.037620068 -0.009382635 -0.11006665
0002f0 4c 34 de 3d e0 4a 3b be 54 62 10 be 48 c2 27 3e
       0.108498186 -0.18290281 -0.14100009 0.16382706
000300 a0 a0 9f bb 12 4c ee bd d8 03 95 bc 60 6c 2d 3c
       -0.004871443 -0.11635603 -0.01819031 0.010584921
000310 4c ce cf 3d f9 8e 28 be 4a a1 1b be e0 24 60 bd
       0.1014677 -0.1646079 -0.15198246 -0.054722667
000320 74 7c 28 3e 04 cf fc bd 00 33 95 3a 91 26 19 be
       0.16453725 -0.123441726 0.0011382997 -0.14956118
000330 84 80 02 be 68 df bb 3d ed 0c b6 bd 00 38 9a 39
       -0.12744337 0.09173471 -0.08889184 0.00029414892
000340 8b f8 fc bd f0 4d cd bc 10 33 36 3e e0 11 d2 bb
       -0.12352093 -0.025061578 0.17792916 -0.0064108223
000350 7a 0f ed bd ba bf 39 3e 00 0c 81 39 7d 3d 43 be
       -0.115752175 0.18139544 0.00024613738 -0.19066425
000360 aa 9d 12 3e 60 89 a4 3d 54 41 ed 3d ec d1 33 3e
       0.14317957 0.08034015 0.11584726 0.17560548
000370 58 4f 75 3d 68 31 4d 3d 50 5e ad bc b0 5e 48 3e
       0.05989012 0.050095946 -0.021163136 0.1956737
000380 ab 4d 0e be a4 fd fd 3d 82 1e 22 be b0 53 f8 bd
       -0.13896815 0.12401894 -0.1583195 -0.12125337
000390 90 69 26 3e 9c fc 09 be b6 e2 8f bd f7 e8 ca bd
       0.16251206 -0.13475269 -0.070256636 -0.09907716
0003a0 8e 1d 15 3e ee 72 48 be 7c 35 d6 3d b4 f9 0d bd
       0.14562055 -0.19575092 0.1045942 -0.034661964
0003b0 40 2f 8d 3b 42 21 17 3e 0c ba 35 3e ae 2e c9 bd
       0.004308611 0.1475878 0.17746753 -0.098233566
0003c0 ec 1a 36 bd 4e 24 0d 3e 16 8a ee bd c0 87 90 3d
       -0.04445927 0.1378338 -0.116474316 0.07057142
0003d0 38 62 9a bc 2a c6 8d bd 77 11 1b be 54 5e 5d bd
       -0.018845662 -0.069225624 -0.15143381 -0.054045036
0003e0 27 7c 49 be f6 43 46 be aa c6 4b be c0 ee 61 3d
       -0.19676267 -0.19361863 -0.19900003 0.05515933
0003f0 58 dd 29 3e b0 df 1d bd c8 f2 3c 3e 20 41 04 be
       0.16588342 -0.038543403 0.18451989 -0.12915468

cnn.0.bias f4 [32]
000000 18 b1 c9 bc 2b a5 1e be b8 ce 0f be bc e0 38 bd
       -0.024620578 -0.15492694 -0.140437 -0.0451362
000010 68 6b c0 bc c8 81 ac 3d b4 34 c6 3d ea 55 0c 3e
       -0.023488715 0.08423191 0.09678021 0.13704649
000020 e8 ec 64 3d e0 42 96 3c 82 56 2b 3e 70 15 1d 3e
       0.055889994 0.018342435 0.16732219 0.15340209
000030 de 7b 33 be e5 cb 29 be 90 2c 0b bc a0 eb b8 3b
       -0.1752772 -0.16581686 -0.008494511 0.005643323
000040 e0 68 83 bc d2 5d 04 be 14 5e 2a bd d2 2b e5 bd
       -0.01604122 -0.12926415 -0.041593626 -0.11189999
000050 f8 dc f9 3c 22 9d 85 bd 6c 60 e1 3d 14 67 49 3e
       0.030500874 -0.06524111 0.11004719 0.19668227
000060 0a 26 10 3e 0c ec aa 3d e0 2e d2 bc 48 05 2e be
       0.14077011 0.083458036 -0.025657117 -0.16994202
000070 b8 5f c4 3d 9e eb 12 be 44 a6 49 bd 26 74 0e 3e
       0.095885694 -0.14347693 -0.04923083 0.13911495

cnn.2.weight f4 [64, 32, 3]
000000 56 5d 49 bd aa c8 ca bd 8e bb 1f bd 68 90 11 3d
       -0.049161278 -0.09901555 -0.038997225 0.035538107
000010 8a 99 8a 3d 62 e0 95 3d 08 5b d5 3c 1c 96 b8 3c
       0.067675665 0.07318188 0.026044384 0.022532515
000020 d8 4d e5 3c 0c ad 77 3d 9a 73 86 bd ce fa 2e bd
       0.02799122 0.060467765 -0.06565018 -0.042719655
000030 0c 5f d0 3d 0e 23 4e bd 00 0c 1e b9 08 79 58 3d
       0.10174379 -0.0503264 -0.00015072525 0.0528498
000040 4a 10 b5 3d bc 74 bd 3d b0 52 13 3c 10 3d d3 bc
       0.088409975 0.09250781 0.008991882 -0.025785953
000050 fa 42 80 bd a7 ea 85 bd 14 77 80 3c 6a cb c9 3d
       -0.06262775 -0.06538897 0.01568178 0.09853251
000060 40 77 c9 bb 80 be 74 3d 30 b3 6b bd 5f cd c1 bd
       -0.006148249 0.059751987 -0.057543933 -0.094629996
000070 b0 ab e9 bc 4e 52 b8 3d d8 2d cf 3d b7 c0 7c bd
       -0.02852425 0.090000734 0.10116166 -0.061707225
000080 0a 57 a7 bd ba 48 83 bd 94 1f 11 3d 80 ef 9a bd
       -0.08170898 -0.06410356 0.035430506 -0.07565212
000090 a2 36 81 3d 7c 4e a4 3d 90 8c 2a bc 48 9d 04 3d
       0.063092485 0.08022782 -0.010409489 0.032376558
0000a0 ec 22 1a bd 88 bd 6d bd 14 a0 19 bd 98 3c 74 3c
       -0.03763096 -0.05804208 -0.037506178 0.014907025
0000b0 20 e5 2e 3d 80 04 c9 3b 84 50 80 bd ba 4d ce 3d
       0.04269898 0.0061345696 -0.06265357 0.10073419
0000c0 a4 c3 b7 3d 3c 72 93 3d 59 80 bc bd 3b 4a 89 bd
       0.08972862 0.07199523 -0.09204168 -0.067036115
0000d0 a0 fa 61 bc 18 ec 49 3d 78 c0 72 3d 50 b8 f8 3c
       -0.013792664 0.049297422 0.059265584 0.030361325
0000e0 02 3f c7 3d b0 65 bb 3b d0 8b 2a 3d f6 db bb bd
       0.09728815 0.005718909 0.04163724 -0.091728136
0000f0 1a d2 c6 3d 24 c7 9b bd 7c cf 95 bd b8 3c c8 3c
       0.097080424 -0.076063424 -0.07314965 0.024443015
000100 b4 14 95 bc 9a 99 a9 bd 10 af 0a 3d 20 05 59 bb
       -0.018198349 -0.0828125 0.03385836 -0.0033114627
000110 fa 0c a0 3d f8 6d c4 3d 18 76 c7 3d 50 e0 99 bd
       0.07814975 0.095912874 0.097393215 -0.07513487
000120 50 cd 76 3c 4c a1 a9 3c 68 2c 9c 3d b0 4f 3a 3c
       0.015063599 0.020706795 0.07625657 0.011371538
000130 a2 2e c1 3d 40 64 47 3d 70 10 14 3d b8 85 52 bc
       0.09432723 0.04867959 0.03614849 -0.012849264
000140 3c 67 92 3d 5f 0f 32 bd 40 bc bc 3d 80 7e 9d ba
       0.07148597 -0.04347169 0.09215593 -0.0012015849
000150 a8 6f 90 bd 60 37 c0 bc d8 62 2f bd ec 8a 8a bc
       -0.07052547 -0.023463905 -0.042818874 -0.016911946
000160 9e 2e c4 3d 08 af 72 3c 30 89 09 3d f8 0a 6e bc
       0.09579204 0.0148122385 0.033578098 -0.014528982
000170 f2 b6 c5 bd 1f a6 aa bd 08 17 8b 3d 78 77 3d 3d
       -0.09654035 -0.08332466 0.06791502 0.046256512
000180 00 6a b6 bb 88 56 d6 3c 23 8d 4e bd b0 ad 80 3c
       -0.0055668354 0.026164308 -0.050427567 0.01570782
000190 b6 d3 06 bd e1 16 ca bd c0 53 fd 3b 84 ec c3 bc
       -0.032916747 -0.09867645 0.007730931 -0.02391649
0001a0 70 73 4d bc 2d e7 47 bd 60 b0 1b 3c 27 ab 78 bd
       -0.0125397295 -0.04880445 0.0095025 -0.0607101
0001b0 c4 90 24 3d 90 b1 4d bd e0 e0 31 bc b8 e6 86 3c
       0.04017712 -0.050218165 -0.010856837 0.016467437
0001c0 f0 ff 5b bc 20 cd 8d 3b bc 63 62 bd 30 bf 9a 3d
       -0.0134277195 0.0043274313 -0.055270895 0.07555997
0001d0 fa 0e c0 3d 98 06 41 3d 18 84 6f bc e0 fc 87 3d
       0.093778566 0.04712543 -0.014618896 0.06640029
0001e0 4f 79 c1 bd b6 a9 ac 3d 00 0a a7 3c 5a 24 19 bd
       -0.09446966 0.08430807 0.02039051 -0.037388183
0001f0 38 1d 25 3c 38 3b 73 bc a8 07 9b 3c 04 01 cd bc
       0.010077767 -0.014845662 0.01892455 -0.025024898
000200 40 30 0d bb 20 33 69 3d ec 8a 2d bd 78 46 9c bc
       -0.0021543652 0.056933522 -0.042368814 -0.01907657
000210 0c c5 b9 3c 93 5d 38 bd 90 bd a3 3c da d2 8c 3d
       0.022676967 -0.045011114 0.019987851 0.06876154
000220 d2 24 17 bd 7c 7c b1 bc a4 61 8c 3c f4 ff ad bc
       -0.03690035 -0.021665804 0.017136402 -0.021240212
000230 de 25 43 bd 3c 30 37 3d 33 4b 90 bd 36 21 8e bd
       -0.047643535 0.044723734 -0.07045593 -0.06939928
000240 c1 3f 23 bd d8 5e f7 3c 81 98 ca bd 30 81 ec bc
       -0.039855722 0.030196592 -0.09892369 -0.028870195
000250 50 db 7b 3c 74 21 38 3d a8 4b f0 3c 58 b0 c1 3d
       0.015372112 0.04495378 0.02933295 0.09457463
000260 99 91 c6 bd 52 32 0b bd 78 fc 46 3c 00 c7 a0 3c
       -0.09695739 -0.033983536 0.012145154 0.01962614
000270 40 99 24 3d 5e 68 82 bd 72 b6 c9 3d 7c e5 5d 3d
       0.040185213 -0.06367563 0.09849252 0.05417393
000280 c5 8b 94 bd 1e 74 d0 3d 78 c9 33 bc d4 29 1a 3d
       -0.072532214 0.101783976 -0.010973327 0.037637547
000290 94 47 75 3d 5b f2 57 bd 5c 5b 2f 3d 26 ac 14 bd
       0.059882715 -0.052721363 0.042811736 -0.036296986
0002a0 25 17 aa bd ba 9d 1b bd 1c 1c 0d bd e0 88 40 3b
       -0.08305196 -0.037992217 -0.034450635 0.002937846
0002b0 50 8b f0 bc 7b 93 29 bd fc c9 85 3c 10 00 7c 3c
       -0.029363304 -0.041400414 0.016331665 0.015380874
0002c0 f0 cb 10 bc 80 bb 88 3d ba 16 9f 3d 02 20 9c 3d
       -0.008837685 0.06676388 0.077680066 0.076232925
0002d0 30 e1 c0 bd 1e 98 ac 3d 7e 4b bd 3d 24 5b a8 3d
       -0.09417951 0.084274516 0.092429146 0.08220509
0002e0 00 d2 b9 3a 24 31 65 3d c8 fe 53 bc c0 dd b7 3a
       0.0014176965 0.055955067 -0.012939163 0.0014027879
0002f0 b0 9f aa bd 82 76 84 bd 44 7a cb bd 3d 71 2d bd
       -0.08331239 -0.06467916 -0.0993543 -0.04234432
000300 68 52 a7 bc cd 65 c4 bd f0 55 03 3d c4 d2 c8 3d
       -0.020425037 -0.095897295 0.03206438 0.09805825
000310 98 73 78 3d 6d 09 3c bd 24 7b 05 3d 37 c8 cf bd
       0.060657114 -0.045907427 0.03258814 -0.1014561
000320 2a 6e a5 3d 0c 13 bf 3d b0 d8 4f bc 50 dd aa 3c
       0.08077653 0.09329805 -0.01268594 0.020857483
000330 06 2d 2d bd cc 8e b8 3d c0 c2 17 bb a6 54 a5 3d
       -0.042279266 0.09011611 -0.0023156852 0.08072786
000340 90 83 8f bd 5a 1b 81 bd 90 0b 53 3d a8 43 3a 3d
       -0.070075154 -0.06304045 0.0515247 0.04547468
000350 94 b3 a4 3d 60 da e9 bc 90 d1 ca bd 96 41 c1 3d
       0.08042064 -0.028546512 -0.09903252 0.09436338
000360 62 ff 8e 3d b4 04 22 3d 20 c4 86 bd a9 28 ba bd
       0.06982304 0.039555266 -0.065803766 -0.090897866
000370 f4 8f 52 3d 7f 18 a6 bd ac e1 96 bd f0 de 3a 3d
       0.051406816 -0.08110141 -0.07367262 0.045622766
000380 82 50 19 bd 60 e4 9d 3d 08 b4 93 3c d4 d0 b6 3d
       -0.037430294 0.07709575 0.018030182 0.089265496
000390 8c 4e 9f 3c 2c b6 04 bd 90 b4 c2 3d d8 61 45 3d
       0.019446634 -0.032400295 0.09507096 0.048189014
0003a0 a3 68 c1 bd c8 fd 1b 3d 78 76 9a 3d 0e 55 92 bd
       -0.09443786 0.03808382 0.07542127 -0.07145129
0003b0 9c 2d c1 bd c3 d1 6e bd f0 67 11 3d a4 6b 6e 3d
       -0.094325274 -0.058305513 0.035499513 0.058208123
0003c0 a1 f4 97 bd 40 e9 62 bc 7c 21 80 3d 48 63 88 bc
       -0.07419706 -0.013849556 0.06256387 -0.016648903
0003d0 c6 79 b6 bd 8e f0 cd 3d 10 d5 aa 3c 18 0a de bc
       -0.08909945 0.10055648 0.02085355 -0.027104422
0003e0 30 7c 80 3c 32 b9 aa bd 2c 1b 8d 3d ff 76 70 bd
       0.015684217 -0.083361045 0.06889948 -0.058707234
0003f0 82 1b 8b bd e9 55 77 bd 60 b4 c6 3b 60 96 ad bd
       -0.06792356 -0.060384665 0.006063983 -0.084759474

cnn.2.bias f4 [64]
000000 08 4e 52 3d 90 ab 95 bb fc 62 1f 3d 24 da 99 3d
       0.051343948 -0.004567571 0.03891276 0.0751231
000010 48 4e 5c 3c 58 b9 70 bc b4 67 8f bd c1 44 81 bd
       0.013446398 -0.014692627 -0.07002202 -0.06311942
000020 20 ed 98 3d b5 91 51 bd 00 f5 34 3d 18 cb 60 bc
       0.07467103 -0.051164348 0.044178963 -0.013720296
000030 59 7d 3e bd 80 de ad bb 40 33 fa 3c 24 ba 63 3d
       -0.04650626 -0.005306065 0.030542016 0.05559744
000040 46 ec 6d bd 62 1a c3 3d 84 4a 5e 3d 6c b0 be bc
       -0.058086656 0.095265165 0.054270282 -0.023277484
000050 d8 34 bb bd f0 22 c9 3c a0 fb a4 3d 50 3b ca bc
       -0.091409385 0.024552792 0.08055806 -0.024686486
000060 02 d1 c2 3d 80 00 85 3b 5f 54 7a bd 00 1a a5 3d
       0.09512521 0.0040588975 -0.06111562 0.080616
000070 e8 92 1d 3c ac 85 17 bd b8 f7 59 3d 90 bc ff 3c
       0.009617545 -0.036992714 0.05321476 0.031217843
000080 a9 30 b6 bd 70 29 3d 3c 34 f3 a0 3c 66 ba a0 3d
       -0.08896 0.011545524 0.019647218 0.07848053
000090 d8 8c 90 3c 3f 93 86 bd 18 8f 48 3c cc b8 ab 3d
       0.017645285 -0.06571054 0.012241147 0.083848566
0000a0 d5 48 5b bd 58 66 90 bd e1 6b 60 bd 80 5c 0d 3d
       -0.053536255 -0.070507705 -0.05479038 0.034512043
0000b0 14 be e7 bc ea 8c be 3d 9a bf 55 bd 6c 3e 0f 3d
       -0.028288879 0.09304221 -0.05218468 0.03497164
0000c0 c0 de ec 3b c8 46 04 3d 4c 5a f7 bc 28 12 1e bd
       0.0072287023 0.032294065 -0.030194424 -0.038591534
0000d0 f2 ab 26 bd 4c 1c 30 3d 0c 18 7c 3d 68 ee 23 3d
       -0.040691324 0.042995736 0.06154637 0.040022284
0000e0 e1 49 85 bd f8 dd 91 bd cf e6 c4 bd 6c fd ad bd
       -0.06508232 -0.07122415 -0.09614336 -0.08495602
0000f0 26 a4 79 bd 52 8c ac 3d 6c 00 a6 3c fc a2 aa bd
       -0.06094756 0.084252015 0.020263873 -0.08331868

lstm.weight_ih_l0 f4 [256, 64]
000000 84 5f a2 bd 80 b6 48 bb 54 ae 10 3d 84 f6 78 bd
       -0.079283744 -0.0030626357 0.035322502 -0.06078197
000010 50 fc ad 3c 3e bc a8 bd 80 f1 0d 3d ca 84 f4 3d
       0.021238476 -0.08239029 0.03465414 0.1193939
000020 ae 9c bf bd 16 5a 8c bd f4 2b 86 3d dc 00 4f 3d
       -0.09356056 -0.0685312 0.06551352 0.05053793
000030 e4 48 7a bd b4 d4 b4 3d 80 7d f6 bb 58 77 d7 bd
       -0.06110467 0.088296324 -0.007522285 -0.1052081
000040 c0 e2 65 3b a8 b7 ec bc 28 43 26 3d 56 6e b2 bd
       0.003507778 -0.028896168 0.04059139 -0.08712451
000050 52 ee a0 bd b0 5f 89 3c 28 e3 5d 3d 74 ce cc 3d
       -0.07857956 0.01676926 0.05417171 0.10000315
000060 68 a7 85 3d c0 54 ad 3c 00 9f bd 3c b6 16 fe bd
       0.06526071 0.021158576 0.023147106 -0.124066755
000070 58 43 96 3c e6 53 de bd c4 fa 3c 3d 32 62 f7 3d
       0.018342659 -0.10855846 0.046137586 0.12079276
000080 a0 ce 99 bc 94 b6 1e 3d 70 25 83 3d 70 cb 5b 3d
       -0.018775284 0.03874834 0.06403625 0.05366081
000090 c0 bf fc 3c 60 a7 cf 3d 78 26 8d bd 00 ca 5b 3d
       0.030853152 0.10139346 -0.06892103 0.05365944
0000a0 7c a6 89 3d 06 69 9a 3d d0 8c 16 3d 20 f7 db 3b
       0.067212075 0.07539563 0.036755383 0.006712809
0000b0 fe f8 83 bd 14 e1 76 bd 90 ba 25 3c 94 7e 77 bd
       -0.06443976 -0.060273245 0.010115281 -0.06042345
0000c0 18 54 d2 bd f0 06 42 3d cc 14 52 bd c0 87 00 3d
       -0.10269946 0.047369897 -0.051289365 0.03137946
0000d0 88 50 f3 bc f8 72 e5 3c a2 ea 8f bd 00 48 36 3d
       -0.029701486 0.028008923 -0.070271745 0.04450226
0000e0 02 bd e3 bd 10 b0 55 3d 36 33 c3 bd 4c 69 09 bd
       -0.11120035 0.05216986 -0.09531252 -0.033547685
0000f0 40 24 39 bd 50 d0 69 bc 3c 9f 61 3d 96 a4 fc bd
       -0.045200586 -0.014270857 0.0550835 -0.1233608
000100 78 6f a9 3c e8 da fd 3c a6 65 d3 3d ac a5 c3 bd
       0.020683035 0.030988172 0.10322122 -0.09553084
000110 38 8a b8 3c e0 65 29 bd f0 fb 24 3d e0 e2 ab 3b
       0.022526845 -0.04135692 0.04027933 0.0052455515
000120 b0 09 b7 3c e0 5a a0 bb 00 1a 73 bb 3e 7b ac bd
       0.022343487 -0.0048936456 -0.0037094355 -0.08421944
000130 88 39 b7 bc 00 9f 1d 3a 7c 27 ae bd 90 d9 43 3d
       -0.0223663 0.00060127676 -0.08503625 0.047814906
000140 bc f0 e8 bd 54 fa e0 3d 20 35 b7 bd 46 72 8d bd
       -0.113740414 0.10985246 -0.0894568 -0.069065616
000150 ee ca d9 3d 40 b1 5c 3d 00 80 27 37 44 98 74 3d
       0.10634409 0.053879976 9.983778e-06 0.059715524
000160 bc e8 98 3d 34 79 73 3d e4 45 de bd 80 16 d5 bc
       0.074662656 0.05944176 -0.10853174 -0.026011705
000170 68 2e 55 3d e8 0d a4 bc d4 2b 16 bd 20 05 47 bc
       0.05204621 -0.020026162 -0.03666289 -0.012147218
000180 90 21 c6 3c 30 8c d7 bd dc 5f 91 bd f0 ae eb bd
       0.024185926 -0.105247855 -0.07098362 -0.11507976
000190 20 7d 72 bc e8 0c 87 3d 44 f5 1b 3d 04 be b0 bd
       -0.01480034 0.065942585 0.0380757 -0.086299926
0001a0 e8 83 19 bd 08 e0 86 bc b8 57 e3 3d 70 73 b8 bc
       -0.03747931 -0.016464248 0.111007154 -0.022515982
0001b0 8a c7 a4 3d c0 45 ce 3c 48 f5 4a 3d 34 28 91 bd
       0.080458716 0.025179744 0.049550325 -0.07087746
0001c0 58 3f 83 3d c0 69 45 3c 12 e8 ed bd c0 be ca bc
       0.06408566 0.012049139 -0.116165295 -0.02474916
0001d0 10 c4 d9 bc ba 12 ef 3d 54 ca f8 bd e8 3c 52 bd
       -0.026582748 0.11673494 -0.12147966 -0.051327616
0001e0 9a fc 8a bd d0 01 97 bc 3a 0a f7 bd fe 10 fa 3d
       -0.06786461 -0.018433481 -0.120624974 0.12210272
0001f0 08 07 8a 3d ac 71 bd 3d 14 00 92 bd 00 52 c1 3a
       0.06739622 0.09250197 -0.07128921 0.0014749169
000200 f2 c9 bb 3d 3a fe 8b bd 84 d3 d3 bd 0c eb de 3d
       0.091693774 -0.06835599 -0.10343078 0.108846754
000210 28 c8 ea 3c 8c c0 17 bd c8 81 da 3d 42 72 c4 bd
       0.028659895 -0.03704886 0.10669285 -0.095921054
000220 a6 77 e8 bd 9a 8a f4 3d c8 74 6b bd b8 7a 82 3d
       -0.11350946 0.11940499 -0.05748442 0.06371063
000230 e0 ab a1 bc 70 0b 35 bd 96 cf 97 3d 58 c3 05 3d
       -0.019735277 -0.04420036 0.07412641 0.032656997
000240 80 cb 0b bb e0 3a d7 bb c0 37 12 3d 40 02 15 3b
       -0.0021331012 -0.0065682977 0.0356977 0.0022736937
000250 32 e9 eb bd 38 63 83 bc 2a 64 ed 3d d0 6d 67 bc
       -0.11519088 -0.016038522 0.115913704 -0.014125302
000260 c0 66 0a 3c fe aa c2 bd 00 70 38 3d 2c 01 5a 3d
       0.008447349 -0.095052704 0.045028687 0.053223774
000270 14 6c 3d 3d c8 1e ab bc 14 2c 5e 3d 7c 17 85 3d
       0.04624565 -0.020888701 0.054241255 0.0649862
000280 0c 5a dd bd 1a 91 ed 3d 92 ec e9 bd c8 2b e9 bc
       -0.10808191 0.115999416 -0.11422075 -0.02846326
000290 b8 c0 fe 3c c0 d8 e2 3b 70 25 7a 3c b6 ea df bd
       0.031097755 0.0069228113 0.015267715 -0.109334394
0002a0 04 83 90 3d cc f3 88 3d 78 0e f6 3c 12 22 f1 3d
       0.07056239 0.066871256 0.030036196 0.117740765
0002b0 68 eb bd 3d 5c 2d 89 bd aa c1 90 bd b8 10 c7 3d
       0.09273416 -0.06698105 -0.070681885 0.09719986
0002c0 80 69 be 3b 80 39 c1 3d b0 f9 07 bd 46 10 ad bd
       0.0058109164 0.094347954 -0.033197105 -0.084503695
0002d0 ec bd 98 bd 60 22 ca bd 70 22 70 3d 98 30 4f 3d
       -0.074581 -0.09869838 0.058626592 0.050583452
0002e0 c0 bf 29 3d 56 68 ab bd 54 f2 3e bd 00 4c d2 ba
       0.041442633 -0.0836951 -0.04661782 -0.0016044378
0002f0 44 21 f6 bd 38 28 e8 3c c4 90 cd 3d 00 18 25 39
       -0.12018064 0.02833949 0.100373775 0.00015744567
000300 40 e4 12 3c c8 9b cd 3d f8 7f 7a 3d c6 3d f5 3d
       0.008965552 0.100394785 0.061157197 0.11974673
000310 a4 3a 6e bd 00 bc 45 ba 86 47 d0 bd ec 07 76 3d
       -0.058161393 -0.0007542968 -0.10169892 0.06006615
000320 c8 5f b5 bc d0 bb cb 3d b8 14 a3 bc c6 e9 f4 3d
       -0.022140399 0.09947932 -0.01990734 0.11958651
000330 e0 2d ac 3b 90 be 81 3d 48 a9 51 bd e8 d1 69 bd
       0.005254492 0.06335175 -0.05118683 -0.057084948
000340 b0 2a 8b bd 26 86 ca bd f0 91 68 3c d4 c0 f9 bd
       -0.06795251 -0.09888868 0.01419495 -0.12194982
000350 24 e8 7b bd 10 34 c2 3c b4 4b 09 3d 18 7c cb bc
       -0.061500683 0.023706466 0.03351946 -0.024839446
000360 f4 2c 60 bd 96 39 e7 bd be 43 c8 bd 14 a8 10 bd
       -0.05473037 -0.112902805 -0.09778546 -0.03531654
000370 2a 79 92 bd 0e e5 c5 bd 46 c0 c1 3d 74 85 a5 3d
       -0.071520165 -0.09662829 0.094605014 0.08082095
000380 d0 c7 cc bc 0c ae 3b 3d 94 43 f8 3d 90 52 a4 3c
       -0.024997622 0.04582028 0.121222645 0.0200589
000390 e8 a2 d5 3d 98 ff 59 bd 2a 8c a1 3d ac 13 4d 3d
       0.104314625 -0.05322227 0.07888062 0.05006759
0003a0 4c d5 3e 3d 4c e7 d6 bd a2 0d d5 bd d8 10 8d bc
       0.046590135 -0.10493335 -0.10402991 -0.017219946
0003b0 90 51 16 bd fe 9e b8 3d e0 ff 81 bd da 9a 9e bd
       -0.036698878 0.090147 -0.063476324 -0.07744379
0003c0 ce bb ac bd 98 b8 f5 bc 20 d9 f2 bb e2 e9 b9 3d
       -0.084342584 -0.029995248 -0.007411137 0.09077813
0003d0 00 cf 55 bb 90 88 c5 bc 60 34 74 bc 8c 35 f3 3d
       -0.0032624602 -0.02411297 -0.014905065 0.11875448
0003e0 ee 72 ed bd 94 01 65 3d 90 81 f5 bc f8 69 b3 bc
       -0.11594187 0.05590971 -0.029969007 -0.021901116
0003f0 e0 a0 84 3c 80 75 29 3b 84 5a 8c bd 50 dc a8 3d
       0.016189992 0.002585739 -0.06853202 0.08245146

lstm.weight_hh_l0 f4 [256, 64]
000000 42 47 aa bd 96 db 83 bd 40 c4 74 bb 74 2e 43 bd
       -0.083143726 -0.06438367 -0.003734842 -0.047651723
000010 a8 7a c4 bc b0 70 f7 3c 08 68 fb 3c fa 06 8c 3d
       -0.023984268 0.0302051 0.030689254 0.06837268
000020 00 88 7e 3a aa 61 82 3d 6c 6b 66 bd ca 8f bd 3d
       0.00097095966 0.06366284 -0.05625479 0.09255941
000030 02 f1 d1 bd bc 26 09 bd 70 33 9a 3c d8 55 79 bd
       -0.10251047 -0.033484206 0.018823355 -0.060872883
000040 cc 2c 57 bd f0 90 fc bc 4c 82 13 bd c4 46 bc 3d
       -0.052532956 -0.03083083 -0.036012933 0.09193185
000050 fc 0a 07 3d 70 de 06 3d 08 d4 c3 3d 64 af 10 bd
       0.03296946 0.032926977 0.09561926 -0.035323516
000060 80 29 6d bc 70 df 0d 3c 9e 9c 96 bd 6e 3c 88 bd
       -0.014475226 0.008659229 -0.07354091 -0.06652151
000070 16 3b 91 3d 40 71 42 bb ce 73 d3 3d 10 ba 3d 3d
       0.07091348 -0.0029669553 0.10324822 0.04632002
000080 08 ce 24 3d fc 76 4a bd 00 18 b2 39 be 91 a4 3d
       0.04023555 -0.04942988 0.00033968687 0.080356106
000090 64 10 a2 3d 9c 52 f5 bd 90 93 ed 3d 70 7b 2f 3c
       0.079132825 -0.11978647 0.11600411 0.010710582
0000a0 b6 25 8d 3d 24 53 4e 3d 00 e7 53 3d be 53 9f 3d
       0.068919584 0.050372258 0.05173397 0.077796444
0000b0 00 43 0f ba 00 2e 81 bc 5c 6a 8b bd 24 d0 29 3d
       -0.0005465001 -0.015769005 -0.06807396 0.041458264
0000c0 60 16 82 bb 20 88 a8 bc 78 97 6d bd ec c4 f2 3d
       -0.0039699525 -0.020572722 -0.05800578 0.11853966
0000d0 b8 6c 08 3d f8 11 a0 bc b6 b9 b3 3d d8 03 dc 3c
       0.033306807 -0.019539818 0.08775656 0.026857302
0000e0 f0 60 d4 bd 00 ff f8 bd b6 a3 b9 3d 8c 3c 32 bd
       -0.10370052 -0.121580124 0.090644285 -0.043514773
0000f0 3c dd 29 bd e6 a5 9f bd 50 70 f0 3d 70 0e ac bd
       -0.04147075 -0.077953145 0.11740172 -0.08401191
000100 c0 c2 d0 3c 68 07 ed bd 00 6a f7 bb 72 03 d3 3d
       0.025483489 -0.11573678 -0.007550478 0.103033915
000110 8a 1d f9 bd a6 f1 d5 3d a0 5d a2 bb c0 a4 1f bc
       -0.12163837 0.104464814 -0.0049550086 -0.009743869
000120 00 0f 8d bc 30 09 41 3d 26 ef c2 bd 30 c2 94 3c
       -0.017219067 0.047127903 -0.0951827 0.018159002
000130 00 52 74 3b d8 41 e6 3c 50 8b 30 bc d0 3e 82 3d
       0.003728032 0.028107569 -0.010775402 0.06359637
000140 68 e9 9a bc d0 a0 59 3d 82 e4 84 3d 18 ea 99 3d
       -0.018910125 0.05313188 0.06488897 0.07515353
000150 f8 3e e0 bd 82 b3 eb bd 06 03 c6 bd bc 9e b9 bd
       -0.1094951 -0.11508848 -0.096685454 -0.09063479
000160 ae 33 fe 3d e2 b9 d8 bd 60 bf 47 3d 64 d6 f8 3d
       0.12412201 -0.10582329 0.048766494 0.12150267
000170 b4 08 54 bd a4 a3 56 3d 84 74 99 bd 0c 15 81 3d
       -0.051766112 0.052402154 -0.07492927 0.063028425
000180 9c 17 c5 bd c0 e9 51 3d 00 b8 84 b8 a4 60 b8 3d
       -0.09623644 0.051248312 -6.328523e-05 0.09002808
000190 8c 96 78 bd e0 d8 57 bd 06 f5 fa bd d8 b4 c6 bc
       -0.060690448 -0.052697062 -0.12253766 -0.024256155
0001a0 9a fd bb 3d 7e a8 fb 3d f2 8f 84 bd c0 c0 ec 3b
       0.0917923 0.12287997 -0.06472768 0.007225126
0001b0 18 98 3b 3d 7e c7 d3 3d e0 16 10 3c 48 bc ed bd
       0.045799345 0.103407845 0.008794516 -0.116081774
0001c0 58 5f 4a bd a0 fb 97 bd e4 bc 8f 3d b4 2f 77 bd
       -0.049407333 -0.074210405 0.0701845 -0.060348228
0001d0 32 67 eb 3d 60 96 53 3d 40 ef 51 bb ec bd 25 3d
       0.11494292 0.05165708 -0.0032033473 0.040464327
0001e0 80 a5 09 bc c6 c8 a8 bd 0e 7e e1 bd 3c 0b 3d 3d
       -0.008401275 -0.082414195 -0.11010371 0.046153292
0001f0 e4 3e 37 3d da cc 93 3d 20 6c 30 bd d8 8c 82 bc
       0.04473771 0.07216807 -0.043071866 -0.0159363
000200 f0 82 71 3c 70 a1 11 3c c8 e2 e3 bd bc df ff 3d
       0.014740691 0.008888587 -0.111272395 0.12493846
000210 5c a6 d7 bd 26 53 ea bd 80 76 2c bd 60 b8 ec 3c
       -0.105297774 -0.114416406 -0.042105198 0.02889651
000220 ae 98 88 bd 90 1d 49 bd 9c b1 7f 3d 78 85 d4 3d
       -0.06669746 -0.04910046 0.06242524 0.1037702
000230 2e 42 f1 bd 94 7e 56 bd c4 d4 a8 3d 00 bd ad 3a
       -0.11780201 -0.052366808 0.08243707 0.0013255179
000240 8e ec a6 bd 0c 74 2e 3d f8 86 93 bd ca 69 e4 3d
       -0.08150588 0.04259114 -0.072034776 0.1115299
000250 f8 ea 6f bd 9c 2e 6a bd 50 44 ce 3d 20 82 ab 3b
       -0.058573693 -0.057173356 0.10071623 0.005234018
000260 44 a4 54 3d 38 09 fb 3c c0 35 3d bb 60 1c 54 3c
       0.05191447 0.030644044 -0.0028871149 0.012946218
000270 d8 76 cc bd 68 b9 d5 bd 70 35 ec bd 98 ef 50 bd
       -0.09983605 -0.10435754 -0.1153363 -0.051009744
000280 30 1c 3d bd 74 91 e3 3d 34 3e d1 3d 4e a3 d9 bd
       -0.04616946 0.11111727 0.102169424 -0.10626851
000290 2a cd ba 3d 50 9c 97 3c e0 a8 ee 3b 00 4c 34 bd
       0.09121163 0.018507153 0.007283315 -0.04401779
0002a0 1e d8 e6 3d 4e 23 a1 bd d0 eb 51 bc 36 3d 82 3d
       0.1127169 -0.07868062 -0.01281257 0.06359331
0002b0 1c 2e c8 3d 28 47 1f bd c8 ba 74 bd 14 fb cd 3d
       0.0977442 -0.03888622 -0.05974844 0.10057655
0002c0 80 96 f9 bb 2c 68 c0 3d 64 b3 c3 bd a0 6a 30 3c
       -0.007616818 0.09394869 -0.095557004 0.010767609
0002d0 b4 a5 61 3d a8 e0 39 bd dc b0 4c 3d 70 00 3b 3c
       0.055089667 -0.045380265 0.049973354 0.0114136785
0002e0 aa 37 88 bd d0 5e 9c bc 00 04 3f 39 b0 36 ee bd
       -0.06651242 -0.019088179 0.0001821667 -0.116315246
0002f0 a8 e6 46 bd 4c 8e 7a bd c2 d8 fc 3d 4c c1 8e 3d
       -0.048559815 -0.06117086 0.12346031 0.06970462
000300 2e 01 99 3d 40 d9 91 bd 50 97 c8 3c 68 c0 f4 bd
       0.07470928 -0.07121515 0.024486214 -0.11950761
000310 40 87 6b 3b b0 f4 f3 3d 1c 7f 7b bd 50 dd 82 bd
       0.003593877 0.11911905 -0.061400518 -0.06389868
000320 66 51 8f bd fc 17 14 3d c2 b0 e1 bd 94 9c bb 3d
       -0.069979474 0.036155686 -0.11020042 0.09160724
000330 e4 38 4a bd 60 05 c7 3c d0 2d a4 bd 7c 3d bf 3d
       -0.04937066 0.024294555 -0.080165505 0.09337899
000340 ae 48 b8 3d 74 a3 3b 3d 5c a6 5c bd a6 ab aa bd
       0.089982376 0.045810178 -0.05386959 -0.083335206
000350 fa 57 dc bd 68 c6 ad bc b4 40 1c 3d c8 b1 e0 bd
       -0.10758968 -0.021212772 0.038147643 -0.10971409
000360 e8 27 66 3d 34 fb 1f bd bc a7 b1 3d 80 1a 73 3d
       0.0561904 -0.039057925 0.08674571 0.059351444
000370 30 c2 5b 3d e8 10 b0 3d 70 0f 43 bc 66 cb ce bd
       0.05365199 0.085969746 -0.011905536 -0.10097389
000380 98 02 02 bd 94 c1 df bd 88 af cb 3d 88 f9 97 3d
       -0.031740755 -0.10925594 0.09945589 0.07420641
000390 b0 bb 76 3d 14 81 29 bd 24 e4 d6 3d ca 32 c8 3d
       0.060237586 -0.041382864 0.10492733 0.09775312
0003a0 a6 ba ab bd 96 37 ae bd 88 9e f6 bd d2 30 96 bd
       -0.0838521 -0.08506696 -0.12041956 -0.073335305
0003b0 20 12 69 bd 5c a8 de bd b0 05 01 bc c0 e8 77 bb
       -0.05690205 -0.10871956 -0.007874891 -0.0037827939
0003c0 90 51 4f bd 94 3e 6a 3d 58 62 94 bd dc a5 1c 3d
       -0.050614893 0.057188585 -0.0724532 0.038244113
0003d0 c2 b3 f4 bd d0 2d 89 3c 28 44 e4 bc 7e 5d 89 3d
       -0.119483486 0.016745478 -0.02786453 0.06707285
0003e0 ee 03 e3 3d 22 89 90 bd f4 1b c3 3d be 7f c7 bd
       0.11084734 -0.07057406 0.09526816 -0.09741162
0003f0 c2 ee c8 3d 58 7e 93 3d 16 b8 a7 bd e8 09 7d 3d
       0.098111644 0.072018325 -0.081894085 0.061777025

lstm.bias_ih_l0 f4 [256]
000000 52 60 bd bd 6c 55 2f 3d b0 1f ca bc 2c 1e cc 3d
       -0.09246887 0.042806074 -0.024673313 0.09966692
000010 9c 1e 9d bd 66 e3 c7 3d 14 53 8f bd c6 89 b3 bd
       -0.07671854 0.0976017 -0.06998268 -0.087665126
000020 ac 7a c2 bd c0 20 2a 3b 02 b8 f4 bd 30 da f5 3d
       -0.09496054 0.0025959462 -0.11949159 0.120045066
000030 36 bc ec bd 8a c2 8e 3d e8 07 d6 bc 20 88 6c 3c
       -0.11559336 0.06970699 -0.026126817 0.014436752
000040 60 86 d9 3c 58 73 3a 3d ea 81 ce 3d 36 46 9d 3d
       0.026553333 0.045520157 0.10083373 0.07679407
000050 2a 2c fb 3d 88 e2 bc bc 24 e7 f7 3d 68 8f 5a bd
       0.12264283 -0.023057237 0.121046335 -0.05335942
000060 56 aa f7 3d 5a 27 94 3d 0a e5 b0 3d 58 e0 df 3c
       0.12093036 0.07234068 0.08637436 0.027328655
000070 a6 59 92 bd 40 93 9d 3c 10 d1 13 bc b8 c1 b7 bc
       -0.07146005 0.019235253 -0.009022012 -0.02243124
000080 b6 33 d6 bd 40 bb b9 bc ba 0e d8 bd 50 af 00 3c
       -0.10459082 -0.022672296 -0.10549684 0.007854298
000090 e0 57 d0 bd 40 5c 66 3d f8 cb 45 bd 44 85 00 3d
       -0.10173011 0.05624032 -0.048290223 0.031377092
0000a0 68 fc b4 3c a4 47 d5 bd 84 17 19 bd 9e 06 8a 3d
       0.022093013 -0.10414055 -0.037375942 0.067395434
0000b0 d0 4b e3 3d 98 81 5f bd d2 9a cc bd c4 13 e9 3d
       0.110984445 -0.05456695 -0.09990467 0.11380723
0000c0 b8 06 75 bd b0 fc 33 3c 6a 97 95 bd 8c 73 ca bd
       -0.05982086 0.010985538 -0.073042706 -0.0988532
0000d0 32 55 d9 bd 86 a0 ca 3d a6 f0 8d 3d 4c 3b 28 bd
       -0.10611953 0.09893899 0.06930666 -0.041072175
0000e0 d0 13 a2 bc b8 1a dd 3d b8 a7 23 bd 66 ea aa 3d
       -0.019784838 0.10796112 -0.03995487 0.08345489
0000f0 80 3e 98 bc c6 9d b2 bd 48 78 5b 3d be fa c0 bd
       -0.01858449 -0.08721499 0.053581506 -0.09422825
000100 4c 81 98 bd 20 9b da bd c8 7d 5f 3d 4c e7 1e bd
       -0.074465364 -0.10674119 0.054563314 -0.0387948
000110 60 72 d1 bc a6 87 bf bd 38 58 99 bd 56 25 85 bd
       -0.025567234 -0.09352045 -0.074875295 -0.06501262
000120 6a 34 86 3d 74 32 0b bd 60 4b c1 3c 8e ba d7 bd
       0.06552966 -0.033983663 0.023595512 -0.10533629
000130 7a 69 ea bd 00 9d b4 3a 1a 21 b8 3d 3c 70 de bd
       -0.11445899 0.00137797 0.089906886 -0.10861251
000140 24 b7 75 bd 08 d6 5a 3d f0 ae c3 3c 84 09 f7 bd
       -0.05998911 0.053426772 0.023887128 -0.12062362
000150 d0 80 de 3c 20 dc d6 3d 94 f8 9f 3d e6 80 dc 3d
       0.027161032 0.10491204 0.078110844 0.10766773
000160 86 fe 90 3d 50 fc ba bd d0 98 04 3c 38 eb 87 3d
       0.070797965 -0.09130156 0.008093074 0.06636661
000170 30 b0 d4 3d 78 21 de 3d 76 de d5 bd 00 42 70 bb
       0.103851676 0.108462274 -0.10442822 -0.0036660433
000180 30 61 af 3c 88 49 4a bd b2 74 a6 bd d4 69 91 3d
       0.021408647 -0.04938653 -0.081277266 0.07100263
000190 86 22 cf 3d dc 2d ae 3d a0 4f 81 bc 08 a8 c8 3c
       0.10114007 0.08504841 -0.015785038 0.024494186
0001a0 d8 00 df bd de 83 e4 3d 28 71 69 3d 20 a7 f0 3d
       -0.10888833 0.11157964 0.05699268 0.117506266
0001b0 00 fd 6a 3b 08 1b 90 3d f4 9d 32 bd 90 83 71 bc
       0.0035856366 0.07036406 -0.043607667 -0.01474084
0001c0 a0 0e ee 3c 34 7d 41 3d c4 bd 1b 3d 3c 0d d2 bd
       0.029059708 0.047238544 0.03802277 -0.102564305
0001d0 80 c8 6c bb 0a 8c b5 bd d8 e7 de 3d c0 77 20 bc
       -0.003613025 -0.08864601 0.108840644 -0.009794176
0001e0 8e bc ab bd 18 10 fc 3c fa 3c 87 3d 00 87 2d bc
       -0.08385573 0.030769393 0.06603427 -0.010591269
0001f0 e0 79 6a bd cc db 73 3d 5c f1 19 3d e8 b6 a0 3d
       -0.057245135 0.059535787 0.037583694 0.078473866
000200 60 be 8b bd fe 0b cc 3d a8 bc 32 3d 5e 59 c6 bd
       -0.068234205 0.09963225 0.043636948 -0.09685014
000210 64 d8 68 bd d6 17 bf 3d 28 9f e6 3d 12 cf d1 bd
       -0.05684699 0.09330718 0.112608254 -0.10244574
000220 b8 cb 19 bd d2 30 90 3d 76 50 ca bd 5a cf e8 bd
       -0.037547797 0.07040562 -0.09878628 -0.11367674
000230 12 84 ed 3d 90 ed cd 3d 4a 01 87 bd 2c fa 6c bd
       0.11597456 0.10055077 -0.06592043 -0.05785577
000240 ec ad 37 bd a0 ce 71 3d 08 bc 41 3d 28 2f 22 3d
       -0.0448436 0.059034944 0.04729846 0.039595753
000250 84 9b 87 3d f4 72 17 bd f0 95 24 bc c8 13 83 3c
       0.06621459 -0.036974862 -0.0100455135 0.016000643
000260 70 0c 62 bc 14 87 0d bd 1e 13 ba 3d 0c 94 35 bd
       -0.013796911 -0.03455265 0.090856776 -0.04433064
000270 5a 4e f0 bd 30 fe 2f 3d 74 db f8 3d a8 99 8c 3d
       -0.117336944 0.04296702 0.12151232 0.06865245
000280 52 a4 eb bd 3c 7f 47 3d e0 c4 cc bd d0 1d b0 3d
       -0.11505951 0.048705325 -0.099984884 0.08599436
000290 f4 0b 23 3d 9a 54 8e 3d e0 67 4b bd ec a7 f7 3d
       0.03980632 0.0694973 -0.04965961 0.120925754
0002a0 98 28 c5 3d 1c 4f 8b bd 18 34 cc bd 10 5d 88 bc
       0.09626883 -0.06802198 -0.099708736 -0.016645938
0002b0 3c ef d0 bd 8c 60 5d 3d f8 18 87 3c 06 a6 d1 bd
       -0.1020188 0.054047152 0.016491398 -0.102367446
0002c0 c4 29 fa 3d 58 e9 be 3c c0 49 e7 3d 78 f5 b1 bd
       0.122149974 0.023304626 0.112933636 -0.086893976
0002d0 30 02 94 bc 4c 5e 1a 3d a0 b4 91 bd de 67 b4 3d
       -0.01806745 0.037687585 -0.071145296 0.088088736
0002e0 64 2d 97 bd a6 37 84 bd 58 79 54 bd 68 89 ca 3c
       -0.073817044 -0.064559266 -0.051873535 0.024723724
0002f0 28 35 66 bd 22 de 8e 3d cc 3f d2 3d ba 32 ef 3d
       -0.056203038 0.06975962 0.102660745 0.11679597
000300 e8 da e8 bd 80 59 6f bb ec b2 a7 bd c0 35 39 bc
       -0.11369878 -0.0036521852 -0.081884235 -0.011304319
000310 dc 08 a6 bd cc 75 a7 bd a4 be 45 3d bc fe 65 3d
       -0.081071585 -0.08176765 0.048277512 0.056151137
000320 d0 2c d4 bc c0 4a 27 bc e2 78 e2 bd d2 a9 ed 3d
       -0.025900275 -0.010210693 -0.11058213 0.11604656
000330 e8 e9 b7 bd 70 da 5b bc 8c d0 42 bd 40 47 59 bd
       -0.08980161 -0.013418779 -0.047562167 -0.053046465
000340 be 6b 8a bd 82 5f f0 3d c0 42 3c 3d 60 34 e8 3c
       -0.067588314 0.11736967 0.045962095 0.028345287
000350 14 2f 28 bd 54 a0 78 bd 78 fd 42 3d 48 88 d2 3d
       -0.041060522 -0.060699776 0.047605008 0.102799
000360 a0 89 9d 3c 64 22 e1 bd be fb b0 bd 02 93 90 bd
       0.019230664 -0.109928876 -0.08641766 -0.070592895
000370 d2 f6 d7 3d 6c 7d e6 3d 60 90 d9 bc 48 68 08 bd
       0.10545124 0.11254391 -0.026558101 -0.033302575
000380 58 33 8b bc 3c b7 d0 3d 30 d9 b9 3d 0a 1c 83 3d
       -0.016992256 0.10191199 0.09074628 0.064018324
000390 44 23 b2 bd 1a 9b a6 bd dc ae 37 3d 44 a4 51 bd
       -0.08698133 -0.08135052 0.044844493 -0.051182047
0003a0 b4 d5 e6 bd 80 bf bb 3b ae 9b bc bd 8c 43 b6 bd
       -0.112712294 0.0057296157 -0.09209381 -0.08899602
0003b0 0e c1 91 bd d0 33 a4 bc ba ac d3 3d 32 ca 87 3d
       -0.071169004 -0.020044237 0.10335679 0.066303626
0003c0 2c 5b e0 bd 00 41 ed bd 1c 67 b3 3d c4 5e 80 3d
       -0.1095489 -0.115846634 0.08759901 0.06268075
0003d0 64 6f 44 3d a0 b1 df 3d 18 8b 74 bd 78 38 8b 3d
       0.047957793 0.10922551 -0.059702963 0.0679788
0003e0 6e ce be bd 60 21 10 3c 36 ac d2 3d 88 85 dc bc
       -0.09316717 0.00879702 0.10286753 -0.026919141
0003f0 32 9d 97 3d e2 dc ea bd e4 55 88 bd 36 6f ff bd
       0.074030295 -0.11467911 -0.06657007 -0.12472384

lstm.bias_hh_l0 f4 [256]
000000 e6 be 9e 3d 0c cb f4 3d 8a 6e a5 bd 5c 27 bb bd
       0.07751255 0.119527906 -0.08077724 -0.091383666
000010 e4 f5 5e bd 96 75 8b 3d ec 6e ec 3d 00 0b 39 bc
       -0.05443372 0.06809537 0.11544594 -0.0112941265
000020 80 5a bf ba 50 5c 11 3d 30 91 bc 3d 8c b5 7a 3d
       -0.0014599115 0.035488427 0.0920738 0.061208293
000030 02 e5 9e bd 24 0f a3 3d ea d1 bf bd d0 c0 55 bd
       -0.077585235 0.07961872 -0.0936621 -0.052185833
000040 4a d8 8e bd bc b1 ae 3d 5e 08 fc bd a6 ea c4 bd
       -0.069748476 0.08529994 -0.123062834 -0.09615068
000050 70 b5 4b bd b2 b7 ec bd a0 76 b2 3d c4 93 4b 3d
       -0.04973358 -0.115584746 0.08714032 0.049701467
000060 ae 2b f1 3d 58 96 b1 bc 98 d9 a2 3c 8a 17 fc 3d
       0.11775909 -0.021678135 0.019879147 0.12309177
000070 00 56 d7 3c 92 14 ae 3d b8 52 a3 bc a8 f8 c1 bd
       0.026286125 0.08500017 -0.019936904 -0.094712555
000080 84 dc 99 3d d0 00 f5 3d c8 91 d9 bd 68 db f3 3c
       0.07512763 0.119630456 -0.10623509 0.029767707
000090 90 25 c2 bd 98 48 b0 3c 22 58 d1 3d 54 aa 7c bd
       -0.09479821 0.02151899 0.10221888 -0.061685875
0000a0 18 e1 79 bd 74 9d 47 bd d4 f8 c1 bd 5a 23 9b 3d
       -0.06100568 -0.048734143 -0.09471288 0.07575102
0000b0 0c c7 ec 3d 60 7a a0 bd b0 01 cf 3d 80 6c 10 3c
       0.11561403 -0.07835841 0.10107744 0.008814931
0000c0 00 54 29 3d 90 1c 67 3c 66 62 83 3d d6 b9 fd bd
       0.041339874 0.014105931 0.064152524 -0.12388961
0000d0 a8 9a 98 3d 80 58 de bb c4 a3 7f bd b8 01 18 3d
       0.07451373 -0.0067854524 -0.06241204 0.037111014
0000e0 cc 01 a3 bd 14 6e ec bd 40 ab a7 3d 70 c4 c3 bc
       -0.07959327 -0.11544433 0.0818696 -0.02389738
0000f0 12 fd ff bd e8 c4 64 3d 6a 3e bc 3d a8 8c ba bd
       -0.12499441 0.055851847 0.09191592 -0.09108859
000100 80 18 d2 bc 80 af 8a 3b 72 a4 89 bd d0 81 50 bd
       -0.025646448 0.004232347 -0.067208186 -0.05090505
000110 e2 12 e6 3d a0 9f d7 3c 4a 23 a0 bd 14 56 66 bd
       0.1123407 0.026321232 -0.07819231 -0.056234434
000120 00 d9 c7 ba 38 9c b2 bc 96 88 95 bd be c9 cd 3d
       -0.0015247166 -0.021803007 -0.07301442 0.10048245
000130 2c da 59 bd c4 b2 52 3d 2e 40 dc 3d 8c 7f 38 bd
       -0.05318658 0.051440015 0.10754429 -0.045043513
000140 bc 98 24 bd 28 a1 c4 bc e0 3c ba bb 58 8d 48 bd
       -0.04018472 -0.024002627 -0.0056835264 -0.04896292
000150 c2 b3 8a 3d 16 12 8e bd ec ea 99 bd c0 52 b0 bd
       0.06772567 -0.06937043 -0.07515511 -0.08609533
000160 e0 23 85 3c 2e 2d c7 bd e0 10 74 3c 34 00 6e 3d
       0.016252458 -0.09725414 0.014896601 0.058105662
000170 f0 f8 f2 3c fc f4 b8 bd d6 d7 c3 bd c0 72 0f bd
       0.029659718 -0.09031102 -0.09562652 -0.035021544
000180 00 f8 e1 3c 8c dc aa 3d e0 9f 4b 3d b8 95 9d 3d
       0.027584076 0.08342847 0.049713016 0.07694572
000190 36 23 bb bd 00 f6 97 3a cc 48 05 3d 96 68 c7 3d
       -0.09137575 0.00115937 0.032540128 0.09736745
0001a0 34 7c bc bd 7e eb a1 3d 50 ad 12 bd 2c b0 5d bd
       -0.09203377 0.07906245 -0.035809815 -0.05412309
0001b0 ee 82 b4 bd 6a 06 90 bd 12 38 8a 3d 24 ba de 3d
       -0.08814035 -0.070324734 0.06748976 0.10875347
0001c0 40 c4 04 bb 18 eb 1d 3d d0 f0 b7 3c a8 9f 91 bd
       -0.0020258576 0.03855428 0.022453696 -0.0711053
0001d0 60 3a e0 3c b0 1e c8 bc 86 44 ef 3d 24 21 fb bd
       0.027371585 -0.024428695 0.11682992 -0.122621804
0001e0 d4 f3 02 bd de dc 8f 3d 60 9e 4b 3d 76 f5 b6 3d
       -0.031970814 0.07024549 0.049711585 0.08933537
0001f0 fc c3 29 3d 60 aa 91 3d 22 ed bf bd 20 12 66 bc
       0.04144667 0.071125746 -0.09371401 -0.014042407
000200 cc db 38 bd b2 be e5 3d 26 d9 bd 3d a4 98 7e bd
       -0.04513149 0.11218013 0.092699334 -0.06215729
000210 e4 93 e5 3d ae 9d ac 3d bc ad 27 bd a0 73 3b bd
       0.112098485 0.084285125 -0.04093717 -0.045764565
000220 5c 89 33 3d 2c 8f a8 bd de 5f ca bd 68 5a e5 3c
       0.043832168 -0.08230433 -0.098815665 0.02799721
000230 54 72 99 bd 30 61 df 3d 0a c9 88 bd 1a 11 96 bd
       -0.074925095 0.10907209 -0.0667897 -0.073274806
000240 80 ed 78 3c 52 e4 c9 bd f0 0a a3 bc 44 5d 2a 3d
       0.015193343 -0.09858002 -0.019902676 0.04159285
000250 b8 46 b3 3d f0 c9 47 bc 6e dc bc 3d 60 74 e9 bc
       0.08753723 -0.012194142 0.09221731 -0.028497875
000260 00 9a ef b9 8a 44 ec bd 80 c1 b9 3d 66 b5 e1 bd
       -0.0004570037 -0.1153651 0.0907011 -0.11020927
000270 24 47 48 bd 58 d9 2e 3d d6 05 e2 bd 30 26 ab bd
       -0.04889597 0.042687744 -0.11036269 -0.08356893
000280 8c 00 43 bd 86 7b 89 3d b8 b7 c5 3c 20 33 f5 bc
       -0.047607943 0.06713013 0.024135455 -0.029931605
000290 08 25 84 bc 18 de c6 3c 58 b6 8a 3c f8 fa 84 bd
       -0.01613094 0.024275824 0.016932651 -0.06493181
0002a0 40 3b 7d 3b 0a 7a c8 3d 4a 7c 90 3d b4 37 f1 3d
       0.0038640052 0.09788902 0.07054956 0.11778203
0002b0 d6 8d a9 bd f0 64 bb 3c 9c 8e 98 3d d0 26 c3 bc
       -0.08279006 0.02287528 0.074490756 -0.023822218
0002c0 60 86 ec 3b 44 9b 00 3d 3c dd c3 bd 2e 76 bf 3d
       0.007218167 0.031398073 -0.095636815 0.09348713
0002d0 c4 73 fe bd 6c 04 76 bd 70 fc b6 3d d4 4d 19 3d
       -0.12424424 -0.06006281 0.089348674 0.03742774
0002e0 7c b4 e6 bd 80 f6 ce bc 00 00 99 bb 1e 96 87 bd
       -0.112648934 -0.025264025 -0.0046691895 -0.066204295
0002f0 ae a3 94 3d 70 12 39 bc ea dd ba 3d 26 b5 c7 bd
       0.07257782 -0.0112959 0.09124358 -0.09751348
000300 10 6c 29 3d f4 9d 9e bd d4 88 ff 3d 14 38 05 3d
       0.041362822 -0.07744971 0.1247727 0.032524183
000310 40 df 22 bc a6 ec 83 bd 22 93 dc bd 42 26 9c bd
       -0.009940922 -0.064416215 -0.10770251 -0.076244846
000320 bc 7d 2a bd 10 86 c0 3c 68 aa 21 3d 28 6c b8 bc
       -0.041623816 0.023501426 0.039469153 -0.02251251
000330 a0 21 1d bc 2a d3 ef bd 6c d2 ce bd 8c 4f 7e bd
       -0.009590536 -0.11710198 -0.100987285 -0.06208758
000340 62 45 97 3d d8 5c 6b bd 9e b0 cd 3d 1c 3e e3 3d
       0.073862806 -0.05746159 0.10043453 0.11095831
000350 a6 38 ba 3d 26 79 cb 3d 30 6f 4f bd 20 df 0f bc
       0.09092836 0.099352166 -0.050643146 -0.0087812245
000360 28 8c 21 3d 60 80 8c 3c c0 af c3 bb b4 30 1c 3d
       0.039440304 0.017151058 -0.0059718788 0.038132384
000370 a0 51 3c 3c 68 63 09 bd 50 48 17 3c 68 cc 64 bd
       0.01149407 -0.033542067 0.009233549 -0.055859
000380 b8 b9 90 bc a8 c9 ea bd 62 24 e4 bd f8 fb dd bc
       -0.017666683 -0.11464244 -0.11139752 -0.027097687
000390 cc 7e ad bd c8 31 59 3d 48 88 c0 3c a0 7a 7f 3d
       -0.0847145 0.05302599 0.023502484 0.062372804
0003a0 fe ef ff bd 30 e0 c9 bc 10 00 4a bc 78 be 65 3d
       -0.12496947 -0.024643034 -0.012329116 0.05608985
0003b0 e8 d5 62 bd 40 ae bd 3d e8 5d ba 3d 70 10 7f 3c
       -0.05537978 0.09261751 0.090999424 0.015567884
0003c0 30 f4 d3 bc 28 8c 24 3d b8 e1 b9 bc a4 5b 4b bd
       -0.025873274 0.040172726 -0.022690639 -0.049647942
0003d0 98 72 14 3d ce 6c b7 bd 40 a7 eb bb 8c ee 6a bd
       0.036242098 -0.089563 -0.0071915686 -0.057356402
0003e0 c8 e9 5c bd 40 07 f0 3b f0 b9 bf bc 1c 44 00 bd
       -0.05393389 0.007325083 -0.023404092 -0.031314954
0003f0 b0 dd 27 3c 02 23 fb 3d 8e 5f d9 3d 00 1b 0b 3d
       0.0102457255 0.122625366 0.10613929 0.033961296
