highway_env_GE_DQN_CLMHA/results/dqn_agent_1.pth (torch, 92336 bytes, 6 tensors)

net.0.weight f4 [128, 40]
000000 0e a5 ca 3d 8f 9e 8f 3e 34 dc 31 be cf 3c 0b 40
       0.09894763 0.28050658 -0.17369157 2.1755865
000010 98 03 63 3e 48 be 12 be 68 43 c0 be 25 6f 33 41
       0.2216934 -0.14330399 -0.37551427 11.214635
000020 79 35 78 bf 59 38 16 c0 a9 25 2f be 4c b7 3a 3f
       -0.9695659 -2.3471892 -0.1710421 0.7293594
000030 c9 bd 94 c0 fc 7a 0e c0 dd 3e 33 bf 51 d5 ef bd
       -4.648167 -2.2262564 -0.70017797 -0.11710609
000040 a3 48 38 bf 02 71 f3 3e fb 18 ef be 08 7c c5 c0
       -0.71985835 0.47547156 -0.46698746 -6.1713905
000050 fe 9c a9 40 02 27 a5 bf 85 b8 55 bf ff d4 d5 bf
       5.300414 -1.2902529 -0.8348468 -1.6705626
000060 b0 47 c5 bf c6 90 ee be 84 9b 86 c0 9d 79 f2 40
       -1.5412502 -0.46594828 -4.206484 7.5773454
000070 fc dc 52 bf 76 36 d3 3c a4 f1 8e be 78 71 d1 be
       -0.82368445 0.025782805 -0.27918732 -0.40906882
000080 54 c3 08 3f c1 32 a9 3f 58 fa a7 3f 3c fd 2e 3e
       0.5342305 1.3218614 1.3123274 0.17088789
000090 02 59 cb 3d a0 c7 c0 bb d7 e6 15 3e 7a bc 83 3d
       0.09929086 -0.005883172 0.1463884 0.064324334
0000a0 70 e8 ae 3d 65 09 0e 3e a1 c8 85 bf ea 0e 13 41
       0.08540428 0.13870771 -1.0451852 9.191141
0000b0 e5 73 47 be 06 a6 83 3d a4 cc b2 bf 54 4a 29 41
       -0.19477804 0.06428151 -1.3968701 10.5806465
0000c0 a2 c3 48 c0 4c f9 e6 bf 89 96 5f c0 9f e9 d6 3e
       -3.1369405 -1.8044829 -3.493563 0.41975114
0000d0 39 9f 0b c0 6e 09 10 c1 71 2f 89 3f 82 d5 a2 bf
       -2.1815932 -9.002302 1.0717603 -1.2721407
0000e0 33 24 e9 c0 8c b0 b9 bf b8 36 92 c0 24 2d fd bf
       -7.285669 -1.4507003 -4.5691795 -1.9779401
0000f0 88 d8 81 c0 b2 bc a8 bf 3d 20 89 3f bb 0e 0b c1
       -4.057682 -1.3182585 1.0712963 -8.691096
000100 95 18 ad bf c5 f7 26 c1 58 91 de 3f 3e 5c e8 40
       -1.3523127 -10.435491 1.7388105 7.26126
000110 3a 57 25 c0 f9 4c 13 3f ad a8 ec 40 08 32 a8 bf
       -2.583449 0.57539326 7.3955903 -1.3140268
000120 47 37 ba 3f 7b 6f c0 40 cb 91 e3 40 2b f4 f1 be
       1.4548119 6.0136085 7.111547 -0.47256598
000130 32 5e 61 bd 60 e5 9c bb 20 48 9e 3d 53 09 17 3e
       -0.055021472 -0.004788086 0.077286005 0.1474965
000140 59 dc cf bd 84 3f 9a 3d 31 d7 00 3e a0 d0 a8 bd
       -0.1014945 0.07531646 0.12582089 -0.08242917
000150 5f 17 0d 3e ac 85 7d 3d 6c 71 75 3d 10 59 f7 bd
       0.13778447 0.061895058 0.05992262 -0.12077534
000160 f0 c0 22 3d c8 f6 e9 bd cb 3e a3 bd a0 b9 05 be
       0.03973478 -0.11424023 -0.07970961 -0.13059092
000170 90 c9 5a 3c ea a1 a7 bd 88 bb 87 3c a4 7b 49 3d
       0.01335372 -0.081851795 0.016568914 0.04919018
000180 7b 35 1d 3e 00 03 38 3a e4 20 02 be f5 6a 96 bd
       0.15352432 0.000701949 -0.1270786 -0.07344619
000190 e2 77 cb bd b8 fc b8 bd 60 51 81 3c 1c c0 3b bd
       -0.09934975 -0.09032577 0.015785873 -0.045837507
0001a0 10 76 07 3c a0 1a ae 3d 51 41 14 3e f4 26 24 3d
       0.008267894 0.08501172 0.14478041 0.04007621
0001b0 69 cd 03 3e f7 83 0e 3e b1 c2 da bd 06 75 68 bd
       0.12871327 0.13917528 -0.10681666 -0.056752227
0001c0 68 53 1e bd c3 c8 02 be 38 55 d4 bc a0 43 99 bb
       -0.03865376 -0.12771897 -0.025919542 -0.004677251
0001d0 bb 84 04 3e f9 4e 09 3e 53 61 bd bd 62 47 a0 bd
       0.12941258 0.13409032 -0.09247079 -0.07826115
0001e0 47 d0 00 be 3c 4d 85 bd 9e 6a 19 bd c8 37 d8 3c
       -0.12579452 -0.06508872 -0.037455194 0.026393786
0001f0 de 3c b6 3d 46 65 e7 3d b6 09 7e bd 32 9b 20 3d
       0.08898328 0.11298613 -0.06202098 0.039210506
000200 12 b8 d2 3d b8 ed e8 bd 65 7a b3 3d af 15 6d 39
       0.10289015 -0.11373466 0.08763579 0.00022610159
000210 e4 b3 19 3e 93 64 c5 bd 64 64 3d be d9 8b 58 3d
       0.15010029 -0.09638324 -0.18495327 0.052867744
000220 44 58 de 3d 37 2d 71 3d e4 30 77 bd 80 76 5c 3b
       0.10856679 0.05888101 -0.06034936 0.0033639967
000230 d1 2d 0e be 5f a5 ea bd 7c 96 db bd 46 1d 87 3d
       -0.13884665 -0.11457323 -0.10722062 0.0659738
000240 60 18 b6 3d 55 b4 85 3d 5a c5 fa bd 4a 43 a8 3d
       0.08891368 0.06528536 -0.12244673 0.08215959
000250 c0 5d 20 be 45 57 e5 3d 90 50 45 3c 29 76 d4 3d
       -0.15660763 0.11198286 0.012043133 0.103741
000260 1a ac 47 bd 8e 4e e8 bc 2e 32 f3 bd 62 fe 65 3c
       -0.048748113 -0.02835777 -0.118748054 0.0140377
000270 48 c0 b4 3d 32 8a f2 bd 20 d9 6b bc 02 5e 07 be
       0.08825737 -0.11842765 -0.014395028 -0.13219455
000280 0f 3b 7f bd 0c 3d 14 be f4 14 0f be b4 76 84 3d
       -0.062312182 -0.14476413 -0.13972837 0.06467953
000290 8e 56 fa 3d 48 e6 9c bd 6b d5 f3 bd 0b e5 cd bd
       0.1222354 -0.0766111 -0.119059406 -0.10053452
0002a0 08 c4 fe 3d 22 29 e8 bd cf f4 2e 3c c7 2b 0e be
       0.12439734 -0.113359705 0.010678484 -0.13883887
0002b0 6a ee 32 3e f4 65 ac bd 1e 22 48 3d 67 3e 0c be
       0.1747376 -0.084178835 0.04886066 -0.1369568
0002c0 dd 39 f0 bd 03 fe d9 bd 96 07 c0 3d da 61 e2 3d
       -0.117297865 -0.10644152 0.09376447 0.1105382
0002d0 89 79 b4 3c f2 bd 43 bd 20 65 b5 3d 27 b8 9f bd
       0.022030609 -0.047788568 0.08857179 -0.07798796
0002e0 c7 9d 1f be 78 88 b2 3c 32 62 95 bd 76 5c 3a 3d
       -0.15587531 0.021793589 -0.0729412 0.045498334
0002f0 36 06 37 be 3d ab d3 bd 65 0b 91 bd 41 a5 b8 3c
       -0.17873463 -0.103353955 -0.070822515 0.022539737
000300 f2 86 c3 bd fc ec be 3c 3e bf fe 3d 11 72 76 3d
       -0.09547223 0.023306362 0.1243882 0.060167376
000310 ce cd 97 bd db 2f 1a be eb 04 1d 3e 37 6e 0b 3e
       -0.07412301 -0.15057318 0.15333907 0.13616262
000320 0e 3c 0c 3e c0 c0 10 3d 06 17 07 be 4d 9b 17 be
       0.13694784 0.03534007 -0.13192376 -0.14805336
000330 85 89 9f bd fe ea 1c be 15 a3 95 be a9 be 1d 40
       -0.07789902 -0.15324017 -0.29225984 2.464762
000340 23 12 8f 3f c8 80 b2 be 97 b2 b5 be 33 0d 74 3f
       1.117741 -0.34863877 -0.35487816 0.9533264
000350 61 d8 a6 bf a9 f1 70 3e 0d 4e c3 be 6c a8 51 3e
       -1.3034784 0.23529686 -0.38145486 0.20474404
000360 f6 c1 70 3d b6 ad b0 3e 57 c1 27 3e 4a dc ae be
       0.058778726 0.3450753 0.16382347 -0.34152442
000370 5e db ac 3f 3b bc a8 be d4 97 2a be b4 86 52 bf
       1.3504446 -0.32956108 -0.1665948 -0.8223679
000380 3b 31 0c bf cd 0d 18 3f 6d 62 6f c0 1f e4 a1 3f
       -0.5476262 0.5939606 -3.7403824 1.2647742
000390 2d 0c 34 bf 7d ba e6 3d 7b 53 20 3e a8 5b 34 be
       -0.7033108 0.112660386 0.15656845 -0.17613089
0003a0 97 c3 6e 3e e2 0d ba 3e 56 c0 3f 3f 1e c8 f2 bd
       0.23316799 0.36338717 0.74902856 -0.118545756
0003b0 00 bb 56 bd 9b 80 16 3e 05 36 0a be 80 e7 fb bb
       -0.05242443 0.14697497 -0.1349717 -0.007687509
0003c0 27 60 6d 3f 67 6d 4c bf 16 06 c1 3f b6 10 22 42
       0.9272484 -0.79854435 1.5079982 40.51632
0003d0 a1 cd 68 bf 5e 44 86 3d dd af 48 bf 07 0d b6 42
       -0.90938765 0.06556009 -0.78393346 91.025444
0003e0 4c 4d 91 c0 18 89 74 c1 c0 86 40 3f ae 19 9a 3f
       -4.5406857 -15.28347 0.7520561 1.2039087
0003f0 47 e4 0d c2 a8 bd 93 c1 f5 86 c0 bf da 30 b1 3e
       -35.472927 -18.467606 -1.5041186 0.34607583

net.0.bias f4 [128]
000000 cb 44 75 be 63 0e b2 bf c6 e2 58 bd 1f 91 f2 3d
       -0.23952024 -1.391064 -0.052950643 0.11844086
000010 7f 1e 3d be 79 ac 69 be 73 5d 4f bf d9 fe 36 be
       -0.18468665 -0.228197 -0.8100197 -0.17870654
000020 cf 51 90 bd 3c 48 9f 3d dc d2 17 bc 84 7d 57 bd
       -0.07046854 0.077774495 -0.009266581 -0.052609935
000030 79 c5 a8 bc 6a 93 73 bd d6 e5 bc be dc b8 ed be
       -0.020601975 -0.059466757 -0.368941 -0.464301
000040 93 f6 26 be f0 a7 34 bc fd 76 e7 3d 4f 9a ce 3d
       -0.16304998 -0.011026368 0.11301992 0.10088026
000050 e5 1f b9 bd 8d a8 4c be 01 cc 1b 3e 1e 76 01 be
       -0.090392865 -0.19986172 0.1521454 -0.12642714
000060 ba 3f 69 bf 78 7f 98 be 90 f8 8c bd 6f 07 08 be
       -0.91112864 -0.2978475 -0.06883347 -0.13284086
000070 2a ac 4a bf 59 be 67 3c 99 dd 2f be 61 9b 51 be
       -0.7916895 0.0141445035 -0.17174377 -0.20469429
000080 70 af 60 3d 40 76 3e be 2a 21 84 be e7 92 2d bf
       0.05485481 -0.18599796 -0.25806552 -0.6780228
000090 14 89 0d 3d 00 6a 4e 3b f8 2f b9 bc 2e 33 05 be
       0.034554556 0.0031496286 -0.022605881 -0.13007805
0000a0 da cb 29 be 59 d1 aa be 14 69 4d bd 20 04 34 be
       -0.1658167 -0.33362845 -0.05014904 -0.17579699
0000b0 23 54 8c bd 8a 7c cd bd a0 5b 35 be a8 d1 c3 3d
       -0.06851985 -0.100335196 -0.17710733 0.09561473
0000c0 b8 2b 4f be 52 22 01 bc 80 10 a3 bc 30 b8 77 bd
       -0.20231521 -0.007881718 -0.019905329 -0.06047839
0000d0 b7 cd 05 bd 20 bc 2c be 7a cd 92 bd 7a c7 0d be
       -0.032666888 -0.16868639 -0.07168098 -0.13845626
0000e0 8c e2 3c bf 70 b0 dd bc aa 2f 01 bc be 7b 14 be
       -0.73783183 -0.027061671 -0.007884899 -0.14500329
0000f0 5d 23 76 bf 00 74 f9 3b 26 c1 10 be 55 ae 7d be
       -0.9614771 0.007612705 -0.1413618 -0.24773534
000100 68 17 e4 3e ea 26 67 bf 15 24 c8 bd bc 43 b3 3e
       0.44549108 -0.90293753 -0.09772507 0.35012615
000110 5a 9b f8 bd 30 63 00 be 8a b6 1b be e7 c0 83 bd
       -0.12139006 -0.12537837 -0.15206352 -0.064332776
000120 a7 3a 9f be 58 e8 0c be de d6 ae bc e0 4a 82 bb
       -0.31099436 -0.13760507 -0.021342691 -0.003976211
000130 a1 22 30 bf 21 d2 2e 3b 88 da 98 3d ae de 0c 40
       -0.6880284 0.002667554 0.074635565 2.2010913
000140 e5 cb 2a be 67 f6 76 bd 5f 37 25 be 26 23 41 be
       -0.16679342 -0.06029358 -0.16134404 -0.18861064
000150 09 0a 0d 3e cc bb 29 be f5 ad a5 bf 4c b2 61 be
       0.1377336 -0.16575545 -1.2943712 -0.22040671
000160 6b fe 8a 3d 86 1f 90 bd 9c bd 4b bf b1 56 e6 be
       0.067868076 -0.070372626 -0.79586196 -0.44988015
000170 b9 e3 93 be 4e fe 3e be 04 14 3b 3d e9 d6 dc bb
       -0.28884676 -0.18651697 0.045673385 -0.0067394865
000180 91 4a 79 3f b3 80 62 be 75 f0 20 bf aa b4 5a bc
       0.97379404 -0.22119407 -0.6286691 -0.013348738
000190 d8 d3 66 3f d5 56 a2 bd bb 7d d3 bd 40 be 5f bc
       0.90167 -0.07926718 -0.103267156 -0.013656199
0001a0 54 1d b1 be d1 99 91 be ec e5 37 3c 7f e7 0e be
       -0.34592688 -0.28437665 0.011224251 -0.13955496
0001b0 75 78 36 be 25 5a a4 bf 6d b4 e1 bd bc cf c5 be
       -0.17819388 -1.284001 -0.110207416 -0.3863505
0001c0 63 60 83 bf 2e 37 c3 be e8 14 d0 3d d6 26 ba 3d
       -1.026379 -0.38128036 0.101602376 0.090894386
0001d0 c4 9f 05 bf e2 01 b3 3d 05 25 8a bd 65 46 6c be
       -0.5219691 0.087405935 -0.06745342 -0.23073728
0001e0 a8 c9 b7 bc ae 90 1a be a5 83 07 3e 2e 1d f2 be
       -0.022435024 -0.15094253 0.13233812 -0.47287887
0001f0 5d 69 e7 bd a9 ed 8d be 65 d8 d6 3c e9 23 97 bd
       -0.11299393 -0.27720383 0.026226232 -0.07379896

net.2.weight f4 [128, 128]
000000 2e c9 3c 3d 0b 83 66 3c 6b 0d 4f bd fc 12 41 bc
       0.046090297 0.014069329 -0.050549906 -0.011784311
000010 05 73 69 bd cd 87 9b 3d 39 7b 8e bd d9 52 04 be
       -0.056994457 0.07594261 -0.069570966 -0.12922229
000020 f0 35 f2 bc 8c 36 e1 3c 3d b4 a5 3d fb fa 87 3d
       -0.029566735 0.02749183 0.08091018 0.066396676
000030 90 58 f9 bd 2d 77 53 bd 60 9b a3 bd 2c 7b 91 3d
       -0.12175095 -0.051627327 -0.0798862 0.07103571
000040 5c db 22 bd b4 d2 a2 3c 7d da 61 bc 8f fa 18 3d
       -0.03975998 0.019875862 -0.013785002 0.037348326
000050 74 0d a0 3c f1 4a 51 3d 3e 5c 12 3d cc 6a f2 bd
       0.019537665 0.05109686 0.0357325 -0.11836776
000060 6a 71 ea bd fb 5c 16 bd 91 18 97 bd 65 1f 4c bd
       -0.11447413 -0.036709767 -0.073777325 -0.049834628
000070 92 11 4f 3d e0 a8 5a bd 7c 46 ed 3c f3 ad 8a bd
       0.050553866 -0.053383708 0.028964274 -0.067714594
000080 5b 95 a1 bd 3a 27 ef 3c 5f a4 19 bd 65 53 48 bd
       -0.078898154 0.02919351 -0.037510272 -0.048907656
000090 4c dd a9 3c 53 00 8c 3d 44 bd de 3c 67 d6 80 3d
       0.020735405 0.06835999 0.027189858 0.06290894
0000a0 cf f0 3e bd 1b 5f f2 bd 60 b9 33 3c e2 99 55 3d
       -0.04661637 -0.11834546 0.01096949 0.052148707
0000b0 fa e7 61 bc fc 55 16 bd f2 d8 2c 3d 74 c6 a8 3c
       -0.013788218 -0.036703095 0.042199083 0.020602442
0000c0 67 59 ea bb 65 a2 12 3d 80 51 5a ba f0 87 9d bd
       -0.007151771 0.035799403 -0.00083281845 -0.07691944
0000d0 b4 cd 52 bc 69 96 ee bc 3b 39 b9 bd 80 f1 0f 3b
       -0.012866426 -0.029124456 -0.09044119 0.0021964014
0000e0 78 75 7e 3c 75 1e 9d 3d e2 bf bf 3d ea 6a 0f 3d
       0.015530936 0.07671825 0.093627706 0.03501407
0000f0 e7 a6 84 bd e0 41 96 3b 99 c2 b1 3b 56 49 75 bc
       -0.064771466 0.0045854896 0.005424809 -0.014971098
000100 0b 00 9e bd 41 14 e1 bd 72 c1 42 3d a3 62 cd bc
       -0.07714852 -0.10990191 0.047547765 -0.025071448
000110 be 82 e9 bc 00 b1 76 ba 8e f6 2e bd 95 6e 51 bd
       -0.028504726 -0.00094105303 -0.0427156 -0.05113085
000120 1e e2 df bc 30 c3 40 bd c3 b3 8e 3d 94 d6 89 bc
       -0.0273295 -0.047061145 0.069678806 -0.016825952
000130 83 b8 d1 bc 91 13 69 3c 5e f1 85 bd ef e9 be bc
       -0.025600677 0.014225856 -0.06540178 -0.023304908
000140 af c1 1d bd a7 89 04 3d a4 c0 d9 3d 1f 4d 98 bd
       -0.03851479 0.032357838 0.106324464 -0.07436585
000150 00 34 40 ba 12 e7 d1 3d db 2c 42 bd 6b 2a 2c bd
       -0.00073319674 0.10249151 -0.04740606 -0.04203264
000160 ba 29 b0 bd ee d0 80 3d bb 74 ed 3d fc 75 07 3d
       -0.08601709 0.0628985 0.1159453 0.033071503
000170 33 3e a1 bd 6a e4 29 3d e0 ff 76 bc 5e 45 1a bc
       -0.07873192 0.0414776 -0.015075654 -0.0094159525
000180 32 a5 d2 bd 0c 5d df 3c 30 14 00 3d 58 4c 36 3c
       -0.10285415 0.027266048 0.031269252 0.0111266
000190 e4 af a9 3c b8 8b 26 bc 73 00 60 3d 7b 84 1c 3d
       0.020713754 -0.0101651475 0.05468793 0.03821228
0001a0 04 72 19 3d 6a a5 b8 bd 8f 04 1b 3d 33 72 95 3d
       0.03746225 -0.09015925 0.037846144 0.072971724
0001b0 f9 29 be bb cb 4c 58 bd 11 4d be bc 2d f1 f3 3c
       -0.0058033434 -0.05280761 -0.023230108 0.029778088
0001c0 31 8a e8 bd 01 f0 4e 3d 08 f6 bb 3d 50 3d 9a bb
       -0.11354483 0.050521854 0.09177786 -0.004707016
0001d0 d3 2d d0 bd 1e d1 3f bd a1 45 ef bd 16 9f 57 3d
       -0.1016499 -0.04683029 -0.116832025 0.05264195
0001e0 07 86 91 3b a4 1b 94 bd 40 4a 10 bb 7e 8d 02 be
       0.004441026 -0.072318345 -0.0022016913 -0.12749287
0001f0 ad 19 a1 bd 83 1c 14 3d cc 9e 87 bd fa 8b 85 bd
       -0.078662254 0.036160003 -0.06622085 -0.06520839
000200 a9 04 81 bd 10 5f c8 bd 82 44 da bc 76 95 25 bd
       -0.06299717 -0.09783757 -0.026643995 -0.04042574
000210 49 4f ab 3d 9f 1f ae bd 5e a1 6a bd f3 bd 0c bd
       0.08364732 -0.08502125 -0.057282798 -0.034360837
000220 2e ac 25 3d 34 70 ad 3c fe 5e 1c 3d d1 07 82 3d
       0.040447406 0.021171667 0.03817653 0.06349147
000230 0a f5 3b 3d 94 e5 d5 bc ad cd e3 bc 75 de a8 bd
       0.045887984 -0.026110448 -0.027808035 -0.08245555
000240 58 42 f8 3c 91 fa 60 bd 34 d2 b6 3c 39 95 8a 3d
       0.030305073 -0.05492646 0.02231703 0.06766743
000250 5a 8c 5a 3d aa f9 a2 bd 6e b3 0a 3d 2e 9f c7 bd
       0.053356506 -0.07957776 0.033862524 -0.09747158
000260 ce 1f f3 bd cc 0b ac 3c 86 d8 9d bd 24 73 cf bd
       -0.11871301 0.021001719 -0.07707314 -0.10129383
000270 80 5a 81 3b b6 2a f4 bc 58 a4 c8 3c fc ff 7b 3d
       0.003947556 -0.029805522 0.024492428 0.061523423
000280 9d 89 ae 3d ec c8 72 3d dd ce 2e bd 64 2b aa bb
       0.085223414 0.059273645 -0.04267775 -0.005193161
000290 79 90 8a 3d 37 17 4c bd 28 5c 76 bd a6 8a 3a 3d
       0.06765837 -0.049826827 -0.06014648 0.04554238
0002a0 71 30 fd 3b df 69 e3 bd 70 be e7 bb e0 a1 46 bb
       0.007726722 -0.11104178 -0.0070722625 -0.0030308887
0002b0 f0 6f 61 3c 00 d0 02 3d 1a 45 f7 bc e4 fb 91 3c
       0.013759598 0.031936646 -0.030184317 0.017820306
0002c0 e5 df ac bc 02 c7 42 3d f0 84 4d bc ac 54 14 3d
       -0.021102855 0.04755307 -0.012543902 0.036213562
0002d0 c5 5c a8 3c 98 53 b2 bd 40 55 da 3a 8f cf a7 3d
       0.020552048 -0.087073505 0.0016657487 0.081938855
0002e0 18 dd a9 bd e0 15 66 3b 4f 4e 64 3d 34 2d c6 bc
       -0.082941234 0.0035108253 0.055738743 -0.024191476
0002f0 76 49 48 3c 7c ff b5 bc 20 70 0a 3d 83 47 d4 bd
       0.012224546 -0.022216551 0.033798337 -0.10365202
000300 e4 b9 c5 bd a2 fb 56 be 28 df 7b bc 41 ee 50 bd
       -0.096545964 -0.20994428 -0.015373029 -0.051008467
000310 60 f3 9d 3b 4f fe b4 3d 80 6d 21 bc 8c e5 f7 3c
       0.0048202723 0.08837568 -0.009852767 0.030260824
000320 33 00 ae 3d bb 24 a9 bd 92 a5 7c bd 27 5c 83 3d
       0.08496132 -0.08258959 -0.061681338 0.06414061
000330 4a fe 98 bd a9 4d 53 be 56 79 fd bc 6c 8a 00 be
       -0.07470377 -0.20635094 -0.030941647 -0.12552804
000340 08 c8 65 3c f6 d5 68 3d 9d bc cf bb fe b8 3a 3d
       0.014024742 0.056844674 -0.006339623 0.04558658
000350 72 ec f7 bc 26 3e 4c bd 79 f4 18 be d7 d9 65 3a
       -0.030264113 -0.049863957 -0.14937009 0.00087681174
000360 37 5b 4a bd 3e a4 3b bd 48 4a 92 bd d0 c7 83 bb
       -0.049403396 -0.04581093 -0.07143074 -0.0040216222
000370 7f 13 98 3d ac cd f6 3c a2 c6 5f 3d a8 b1 1d 3d
       0.074255936 0.030127369 0.05463279 0.038499504
000380 2d 04 6e be ac a6 1c bd 2a bb b7 bd cf 9d 94 bd
       -0.2324378 -0.03824489 -0.089712456 -0.07256662
000390 24 ba 6b bc 02 5b 0b bd 1a 7e 2f 3b 8c 51 31 3d
       -0.014387641 -0.03402234 0.0026778043 0.04329066
0003a0 9b fa 7a be 63 af b8 bd 20 41 42 bc 29 b9 93 3d
       -0.24509661 -0.09017827 -0.011856347 0.07213051
0003b0 19 89 8c 3d 11 f0 43 bd e0 2c 2c bd 05 76 a4 bc
       0.06862087 -0.047836367 -0.042034984 -0.020075807
0003c0 9b aa 2a 3d 0b dd 53 3c f2 47 3b 3d 64 fb c4 bc
       0.04166661 0.012931119 0.04572291 -0.024045654
0003d0 c8 0c 79 bd e0 0d 74 3c cc 8c a0 bd bf 83 b7 bc
       -0.060803205 0.014895886 -0.07839355 -0.022401689
0003e0 a4 7a 57 bc b0 69 2b 3c 68 df 07 3c 18 b1 0f 3c
       -0.013151798 0.01046221 0.00829301 0.00877025
0003f0 58 2b 81 bd 1e 49 52 3d e4 ea 09 bd 24 70 5b bd
       -0.06307095 0.05133926 -0.033671275 -0.053573743

net.2.bias f4 [128]
000000 69 f1 aa bc 57 06 5b be b7 47 58 be b9 78 83 be
       -0.020867066 -0.21389137 -0.21121107 -0.25678042
000010 93 ce ac bf 60 b5 7d bd dc 92 14 bf 24 59 6a be
       -1.3500541 -0.06194055 -0.5803659 -0.22885567
000020 29 04 90 be c5 80 6e bd c2 09 ed bf 97 ad 77 c0
       -0.28128174 -0.058228273 -1.8518603 -3.86997
000030 b1 45 8b bf 59 25 a4 40 50 c1 de be 26 a2 b5 bd
       -1.0880643 5.129559 -0.4350686 -0.08868818
000040 74 74 04 bf 85 59 83 be 08 b8 cd bf 99 20 4a be
       -0.51740193 -0.25654235 -1.6071787 -0.19738998
000050 b2 0f 18 be ab 1a b1 bd 33 65 4c c0 48 b5 71 bf
       -0.14849737 -0.08647665 -3.1936767 -0.9441724
000060 44 c7 1a bf 74 6f eb bd ef 5a dd bd fa 4a ce bf
       -0.60460305 -0.11495867 -0.1080836 -1.6116631
000070 88 04 20 c0 15 52 1e be f6 3b 95 3f c6 26 89 be
       -2.5002766 -0.15461 1.1658924 -0.26787394
000080 97 34 80 be 6e 50 81 be 9c af 12 bf d6 8b 54 be
       -0.25040123 -0.25256675 -0.5729921 -0.20756468
000090 03 66 36 be d6 28 8a be 75 b2 bc bd 53 ce 33 bf
       -0.17812352 -0.2698428 -0.092137255 -0.702367
0000a0 e8 8c e0 be c7 a9 42 be ad 0f b0 bf 1b 97 6a bf
       -0.43857503 -0.19010077 -1.3754784 -0.9163682
0000b0 ef 6d 89 be db f9 72 be 90 f9 b3 bf 62 3c f5 bf
       -0.26841685 -0.23728125 -1.4060535 -1.9159052
0000c0 58 e2 51 be 61 b0 d5 be 93 42 83 bf 13 ff 03 c0
       -0.204965 -0.4173613 -1.0254692 -2.0624435
0000d0 04 d6 ff 3e 3b ac 97 be 81 87 bc be 3c 67 ef bf
       0.49967968 -0.2962359 -0.3682213 -1.870338
0000e0 1d 20 4b bf 46 8c cb bf c7 c1 05 c0 bf 35 31 be
       -0.79345876 -1.5902183 -2.0899522 -0.17305659
0000f0 a4 0b 61 bf 30 e3 c7 bd 79 31 fa be f2 a3 a3 be
       -0.8790839 -0.097601295 -0.4886587 -0.31961018
000100 29 5b ba be c1 b7 16 c0 b8 fb be bf ae a1 48 be
       -0.36397675 -2.3549654 -1.4920568 -0.19592926
000110 90 73 eb be fc f1 a0 be 61 1e 79 be a7 2e 00 bf
       -0.45986605 -0.3143462 -0.24327995 -0.50071186
000120 41 e2 d1 3d cc ec 50 be 74 87 a5 bf 9c 9c c7 bf
       0.10248233 -0.20402831 -1.2931962 -1.5594668
000130 ed 3a 91 bf 54 81 24 be b9 43 2b bf ae c9 82 40
       -1.1346108 -0.1606496 -0.6690021 4.087119
000140 df 4f 82 3e 93 e6 57 be 28 44 3a bf 19 f8 4f bf
       0.25451562 -0.21084051 -0.7276025 -0.8123794
000150 75 04 5f bf 5e 75 d7 bf 42 a1 03 40 b2 3f 88 be
       -0.87116176 -1.6832693 2.0567174 -0.26611096
000160 5c bd be be 0c 00 87 be 95 59 4c be 6b 85 34 40
       -0.37253845 -0.26367223 -0.19956048 2.8206432
000170 1b 4f 86 bf 0e 91 81 bf 58 a0 3b be 0f 9a 4d be
       -1.0492891 -1.0122392 -0.18322885 -0.200783
000180 60 3a 86 bf 96 a5 92 bd 19 08 9a bf f2 8f 14 be
       -1.0486565 -0.07160489 -1.2033721 -0.14508036
000190 74 0d d5 bd 07 2a 90 be 74 b2 07 bf 9c 26 57 c0
       -0.104029566 -0.28157064 -0.5300667 -3.3617315
0001a0 0e 70 23 bf e2 b5 18 c0 24 72 90 be 37 57 48 be
       -0.63842857 -2.3861012 -0.28212082 -0.1956452
0001b0 d6 a2 0c 3f 25 4c b7 bf 89 dd 0c c0 67 46 05 be
       0.5493597 -1.4320112 -2.2010214 -0.13015138
0001c0 0e 65 50 bd b0 0a 22 be ec ce 21 be 24 81 c1 be
       -0.050877623 -0.1582439 -0.1580159 -0.3779384
0001d0 e3 51 82 bf fd 1f 2f 40 7f db 3d c0 82 55 89 3e
       -1.018124 2.7363274 -2.966522 0.2682305
0001e0 82 d8 1e c0 84 02 74 bd 46 0c 11 be c8 75 03 be
       -2.4819646 -0.05957271 -0.14164838 -0.12837899
0001f0 5e 7a 13 be 61 cd 09 be 68 c7 1e c0 eb fe 35 be
       -0.14402148 -0.13457252 -2.4809208 -0.17773025

net.4.weight f4 [5, 128]
000000 3a 7d 58 3d 10 ef 8d bb d4 ef e0 3d 0a 04 23 3d
       0.0528538 -0.004331477 0.109832436 0.039798774
000010 07 9c 26 3f 4a 71 93 bd db d8 06 bf 36 5a 29 be
       0.6508183 -0.071993425 -0.52674645 -0.16538319
000020 ad 9f 75 be 1c 83 60 bd a9 50 92 40 0f 49 8f 40
       -0.23986693 -0.054812536 4.572346 4.4776683
000030 85 8f c4 3f 25 5a 03 40 8e a4 5c 3d 1a 77 1b 3d
       1.5356299 2.052377 0.05386787 0.03795538
000040 fc c5 ac 40 c0 66 1b 3b d5 65 5b 40 c8 54 c2 bc
       5.399168 0.0023712367 3.4280903 -0.023722067
000050 60 60 5f bd 4a 38 ca 3d ee f2 f1 40 01 cf af 3f
       -0.05453527 0.098740175 7.5609045 1.3735048
000060 99 e4 e2 be 9e 0c f0 bc 40 d6 19 3b e6 a3 02 40
       -0.4431503 -0.029302891 0.002347365 2.0412536
000070 23 25 2c 3f 72 11 ad bd 27 5f 60 40 19 8d 8d 3d
       0.67244166 -0.08450593 3.5058076 0.06911678
000080 eb d7 a6 bd 56 5e e7 bc 44 d9 da 3f 84 39 e4 bc
       -0.08146652 -0.028243225 1.7097554 -0.027859457
000090 88 31 07 3c 02 f9 75 bd 84 7a 22 bd 01 76 da 3f
       0.008251555 -0.060051925 -0.03966762 1.7067262
0000a0 84 bc bd bf 80 57 ac 3b 70 97 1a 3f b1 e9 c6 3f
       -1.4823155 0.0052594543 0.60387325 1.5540067
0000b0 60 6d ee bd d7 8b 9a 3d 9d d4 b6 40 fd cc a9 40
       -0.116419554 0.075462036 5.713454 5.306273
0000c0 50 81 9f bc 8f 62 66 3e af a8 cf 3f 30 d0 9e 40
       -0.01947084 0.22498535 1.6223353 4.9629135
0000d0 6c 98 2d 40 6c c3 ce 3c da 78 bb 40 a7 c9 3c 3f
       2.712428 0.025239669 5.8585024 0.737452
0000e0 c2 8d 2b 40 af e3 bc 3f a8 12 bc 40 45 3c 16 bd
       2.6805272 1.4756984 5.8772774 -0.03667857
0000f0 c4 b5 52 3f f1 17 08 3c b8 b4 f1 3f 1d 9c 73 3e
       0.823086 0.008306489 1.8883276 0.23790021
000100 6a f1 21 be cb 25 4f 40 eb 34 0d c0 e3 2a ab bd
       -0.15814748 3.2366817 -2.2063549 -0.08357789
000110 3b 36 a7 3f af cf bf 40 a0 8c 87 3c ab 3c b3 40
       1.3063425 5.994102 0.016546547 5.6011558
000120 60 51 45 40 10 80 e2 bc 38 9d 50 40 fb bd e8 40
       3.0830917 -0.027648956 3.2595959 7.273191
000130 14 9b 1b 40 05 2d cc 3d e1 25 17 40 40 5b 13 40
       2.4313402 0.09969524 2.361687 2.3024445
000140 4d 89 8a 40 23 3a 1d 3e 9a e5 87 bd 27 20 1a be
       4.3292603 0.15354209 -0.0663559 -0.15051328
000150 3c db 0a 41 7f 0d a0 40 b9 37 8f c0 21 3c b3 3d
       8.678524 5.0016475 -4.475552 0.08751703
000160 f0 0c 0d be 26 fa 81 bd 7b c0 36 3e cc f0 8e c0
       -0.13774467 -0.0634654 0.17846863 -4.466894
000170 38 45 cf 3f a5 fe d2 3e e1 62 af 3d db cd 93 3c
       1.6192999 0.41209903 0.085637815 0.018042495
000180 75 8b 8e c0 ac 88 38 bf 2b 7d ea 40 37 fa 1b 3f
       -4.4545236 -0.72083545 7.3277793 0.6092867
000190 c0 a2 6e bc 74 53 0d 3d 91 50 1e 3e 0e bc 28 c0
       -0.01456517 0.034503415 0.15460421 -2.636478
0001a0 96 8e 32 40 47 80 e9 40 7a 3a 33 3d 4c ea e2 bd
       2.7899528 7.296909 0.04375694 -0.11079845
0001b0 90 ed 0d 40 b5 7d c2 40 2f 64 82 40 24 b9 33 3e
       2.2176247 6.077845 4.0747294 0.17551094
0001c0 6e 25 09 be 4e fe fb 3d 15 c0 07 be 81 3a 62 3d
       -0.13393185 0.12304364 -0.13256867 0.055231575
0001d0 22 16 5e 40 a6 b6 18 40 58 dd c8 bd 52 1e cc bf
       3.4701009 2.386148 -0.09807843 -1.5946753
0001e0 bf 88 63 40 3a e6 ad bd 6c 5b fb bc bc e4 38 bd
       3.5552213 -0.08491178 -0.030683242 -0.045140013
0001f0 7e cf 2e 3d dc 9b 8c 3c d6 42 97 3f 8a d9 7a bd
       0.04267835 0.017164163 1.1817272 -0.061242618
000200 ae 6a 82 bc 12 4f 7c 3c a1 05 df 3d 8f 13 8c 3b
       -0.01592001 0.015399711 0.108897455 0.0042747925
000210 8b 0e 59 3f 27 4d ac 3b a5 3b 1d 3e 44 f5 3a be
       0.84787816 0.0052582207 0.15354784 -0.18257624
000220 57 bb fa bd 3f f5 11 bd e7 30 90 40 58 72 47 40
       -0.122427635 -0.035634276 4.5059695 3.116354
000230 ae d9 00 40 a3 8f f9 3f 77 f5 08 3e d5 9a c4 3d
       2.013286 1.949696 0.13374887 0.09599844
000240 44 f6 b8 40 6b c1 da bd fb 35 52 40 2e e8 9f 3d
       5.7800617 -0.10681423 3.2845447 0.07807957
000250 84 32 a2 3c 9b b8 44 3e 7d 21 12 41 fe fb bf 3f
       0.019799478 0.19211046 9.133176 1.4998777
000260 5c d7 a7 bd 70 65 d3 bc 0a 34 4b bc ea 0b 3e 40
       -0.081953734 -0.025805205 -0.012402544 2.9694772
000270 ab c9 68 3f 49 69 c0 3c 60 de 5c 40 84 5b c9 3d
       0.9093272 0.023487704 3.4510727 0.09831908
000280 f8 d3 55 bd 9b bf ca 3d 8e 7a 0e 40 8b 37 04 bd
       -0.052204102 0.09899827 2.2262301 -0.032279532
000290 fb 35 91 3c 08 15 14 bd c0 83 fb bb 71 4c f4 3f
       0.017725935 -0.03615287 -0.007675618 1.9085828
0002a0 17 a2 17 c0 c5 04 0a 3c 92 bb 02 40 41 9f b5 3f
       -2.3692682 0.008423989 2.0426984 1.4189225
0002b0 65 21 0c be 41 90 e9 3c 04 75 ff 40 b2 79 87 40
       -0.13684614 0.028511168 7.983034 4.2336054
0002c0 12 1f 3d bd 91 eb 8c 3d 95 95 96 3f 07 96 98 40
       -0.04617221 0.06880868 1.1764399 4.768314
0002d0 e2 ca 69 40 e2 3a 13 3e e3 21 f2 40 54 80 98 3f
       3.653008 0.14377931 7.5666366 1.1914163
0002e0 c2 77 1d 40 05 52 49 40 df 9b 16 40 44 a4 36 bc
       2.4604344 3.145631 2.3532636 -0.011147562
0002f0 c1 3d 9d 3f 31 d5 07 be a0 d5 9b 3f 01 86 15 be
       1.2284471 -0.1326492 1.2174568 -0.146019
000300 64 8b d3 3d bb fb a1 40 e6 4b cb bf c1 94 f5 3d
       0.10329321 5.061979 -1.5882537 0.11991263
000310 85 26 59 3f f1 7e 0f 41 4d b1 7a be 74 a8 a6 40
       0.848244 8.968492 -0.24481697 5.208063
000320 43 43 0b c0 45 b5 0e 3d 4b d6 84 40 c6 72 ef 40
       -2.1759803 0.03484084 4.151159 7.4827604
000330 62 a3 d4 3f 7c 9d 89 3d 92 6a b3 3f 9c 20 0a 40
       1.661236 0.06719491 1.4016898 2.1582403
000340 89 be f7 40 c7 ed e4 3d f6 88 19 3e dd ae 99 bd
       7.7420087 0.11178165 0.14993653 -0.07504056
000350 f5 eb 16 41 bc cb 80 40 29 18 9f c0 31 d7 00 be
       9.432607 4.02487 -4.971699 -0.12582089
000360 56 a3 ca 3d ab 1a b1 bd 8a 8b 2b be 52 e8 8d c0
       0.09894435 -0.08647665 -0.16752449 -4.4346094
000370 4b 87 98 3f 5f a7 0e bf 90 08 ae bb 70 f7 96 bd
       1.1916288 -0.5572414 -0.0053110793 -0.07371414
000380 20 10 a0 bf e6 6f f8 be eb a0 04 41 29 77 17 be
       -1.2504921 -0.48522872 8.289287 -0.1479155
000390 de 5b 3a bd 73 0e d7 3d 69 1f ff bc 18 7f 48 bf
       -0.045497768 0.10500803 -0.031142907 -0.7831893
0003a0 e8 d0 da 3f 36 08 0f 41 fa 3d 7f 3c e9 3d 9c bc
       1.7095003 8.939505 0.015578741 -0.01907249
0003b0 10 46 1d 40 c9 5d a5 40 d9 15 8f 40 9a ba 68 bc
       2.4574013 5.1676984 4.471417 -0.0142046455
0003c0 ea b9 45 3b 9a 82 f1 bd 28 60 93 3e 01 09 5f 3e
       0.0030170628 -0.117924884 0.287843 0.21780778
0003d0 65 01 4c 40 45 97 18 40 56 94 22 40 01 81 0c c0
       3.187585 2.3842328 2.5403037 -2.1953738
0003e0 0b 54 6b 40 5b fb 3e 3c d8 11 c8 3c 6e f1 4a bc
       3.6770046 0.0116566075 0.024422571 -0.012386663
0003f0 f0 6c 57 3c 8a f7 23 bd a4 c9 d9 3f 10 52 99 bd
       0.013148531 -0.040030994 1.7014661 -0.07486355

net.4.bias f4 [5]
000000 02 be 8f 40 f7 12 55 40 90 76 c0 40 82 d6 2e 41
       4.4919443 3.3292825 6.014473 10.92737
000010 29 7a 72 41
       15.154824
