highway_env_GE_DQN_CLMHA/results/dqn_agent_0.pth (torch, 458680 bytes, 16 tensors)

net.0.weight f4 [256, 45]
-0.0008178055 0.03554222 -0.0076756477 -0.03505031 0.07557407 0.12370691 -0.13822092 -0.12853192
-0.016392037 -0.10886912 -9.264052e-05 0.0106064975 -0.1096534 -0.031010486 0.119487554 0.026620373
0.087081894 -0.01973088 0.06899853 -0.13031797 0.11376378 0.13693151 -0.12765697 -0.08027763
-0.016128018 -0.04414694 -0.04857941 0.02484642 0.053552076 0.05027859 -0.068895824 0.09737982
-0.052010767 0.015741557 0.0630717 0.016541392 -0.07047716 -0.013781667 0.036264256 -0.048920214
-0.07360533 -0.114286266 0.044579223 -0.021811642 0.14024779 -0.0089995265 -0.103508145 -0.02856192
0.012277514 -0.061418846 0.08594419 -0.03468825 -0.0397932 0.00826104 0.03898731 -0.0659605
-0.08049404 0.12475094 -0.034460396 0.06290747 -0.06727223 0.022285655 0.09408349 -0.10463384
-0.027210012 -0.012792617 0.007702276 -0.0008558929 -0.012555942 -0.10944857 0.074058816 0.058407858
0.071668044 0.11624816 -0.015173703 -0.09211882 -0.004657194 0.03177336 -0.056925505 -0.124453366
0.018609881 0.04538679 0.13075963 0.13287714 -0.106330626 0.034409553 -0.023655258 -0.08036451
0.009709328 -0.029006943 -0.07052792 0.13643211 0.1387285 0.12980944 -0.03165017 -0.034999393
-0.090143755 0.13964885 0.12884292 0.05340025 -0.04152806 -0.12403076 -0.14026222 0.13030389
0.11597231 -0.07061742 0.046194986 -0.07593086 0.07221913 -0.1328561 -0.07317077 -0.0749701
-0.06627828 0.13974434 0.04124765 -0.1259085 -0.11293306 0.04125206 0.115852445 -0.03945087
0.12823394 -0.083034985 -0.008567393 0.041562796 -0.08942084 0.118842095 0.08463219 0.003068924
-0.0892576 -0.090568006 0.052414045 -0.0061579496 -0.038191877 0.10682291 0.030270204 0.0017628819
0.022562802 -0.0002925843 0.0043747574 -0.07688351 0.034530893 0.026003897 -0.016668297 0.1294345
-0.0709619 -0.06714688 -0.05296418 -0.048131168 -0.051687352 -0.070390105 0.0063999444 0.012382343
-0.021832846 0.03790447 0.01599902 0.1280325 -0.114166416 0.06385675 0.08638424 -0.0348119
0.05005896 -0.025135957 -0.14040689 -0.09894078 0.05051492 0.014401287 -0.07533603 0.07501972
0.117409796 0.07914586 0.11277765 0.10679345 0.1327143 0.048080757 0.05889502 -0.049879566
-0.0026861131 0.06527066 -0.054690436 0.115888566 -0.0066044303 -1.4321854 0.12509826 -15.382816
-0.54976714 0.03465028 0.08460239 -1.0311775 0.037785262 -2.8096745 0.11882144 -0.025118323
0.12189782 -0.041490443 -0.015166312 -0.13825873 -0.056133464 0.024273247 -0.13166092 0.0870368
0.0081937015 -0.09395152 0.12665588 0.04711476 0.13412645 -0.13217238 0.05442764 0.09146288
-0.100814074 0.05431521 0.023744121 0.11205354 0.12703678 0.11442882 -0.06065201 -0.10354198
-0.11467208 -0.006095752 -0.058846258 0.12975699 0.054882914 -0.09005955 0.08365838 -0.13053037
0.09986198 0.0067229015 -0.43423015 -0.16407716 -2.536133 -0.42326632 -0.12046475 -0.07686157
0.10476883 0.058675274 -0.85170436 -0.004154282 -0.19956739 -0.039844844 0.08386855 0.08312361
-0.022835188 -0.057150193 -0.07239113 -0.034060307 -0.063263886 -0.030858234 -0.032202467 0.00463672
-0.055716723 0.057090804 -0.116867125 -0.08986296 -0.10985413 0.0133637935 0.10761215 -0.12927988
00000000: 0062 56ba b894 113d 0084 fbbb ea90 0fbd
00000010: 94c6 9a3d 0c5a fd3d c989 0dbe df9d 03be
00000020: 9848 86bc c6f6 debd 0048 c2b8 e0c6 2d3c
00000030: f691 e0bd b409 febc e4b5 f43d f812 da3c
00000040: fe57 b23d a8a2 a1bc 1a4f 8d3d 1372 05be
00000050: fcfc e83d c637 0c3e 82b8 02be 9968 a4bd
00000060: e81e 84bc 6cd3 34bd 34fb 46bd b88a cb3c
00000070: 6c59 5b3d ecf0 4d3d 4119 8dbd 126f c73d
00000080: 3e09 55bd 70f4 803c bc2b 813d d081 873c
00000090: 5456 90bd 80cc 61bc d489 143d 9060 48bd
000000a0: 64be 96bd eb0e eabd b498 363d 54ae b2bc
000000b0: 1e9d 0f3e c072 13bc 14fc d3bd b0fa e9bc
000000c0: a027 493c 5492 7bbd 8203 b03d 4415 0ebd
000000d0: 32fe 22bd 5059 073c 28b1 1f3d 4c16 87bd
000000e0: 0fda a4bd 6c7d ff3d 5826 0dbd a2d5 803d
000000f0: 06c6 89bd 6890 b63c d8ae c03d 444a d6bd
00000100: 88e7 debc 2098 51bc 6063 fc3b 005e 60ba
00000110: 70b7 4dbc 9226 e0bd 26ac 973d 143d 6f3d
00000120: b2c6 923d 8413 ee3d 209b 78bc cba8 bcbd
00000130: 609b 98bb c824 023d b82a 69bd 68e1 febd
00000140: c073 983c 80e7 393d dae5 053e f210 083e
00000150: dfc3 d9bd 08f1 0c3d acc8 c1bc 2696 a4bd
00000160: e013 1f3c f89f edbc f170 90bd dcb4 0b3e
00000170: d80e 0e3e c4ec 043e 9ca3 01bd 865b 0fbd
00000180: 4a9d b8bd 1c00 0f3e 66ef 033e 38ba 5a3d
00000190: 5419 2abd d703 febd e6a0 0fbe 626e 053e
000001a0: e482 ed3d de9f 90bd f436 3d3d a481 9bbd
000001b0: a0e7 933d 6e0b 08be 8fda 95bd ec89 99bd
000001c0: e8bc 87bd 2419 0f3e 4cf3 283d 28ee 00be
000001d0: 7349 e7bd ecf7 283d 0c44 ed3d 3c97 21bd
000001e0: c24f 033e 3f0e aabd 405e 0cbc c03d 2a3d
000001f0: 4622 b7bd 7c63 f33d a453 ad3d 0020 493b
00000200: b0cc b6bd b87b b9bd 1cb0 563d a0c8 c9bb
00000210: 166f 1cbd f8c5 da3d 38f9 f73c 8010 e73a
00000220: a0d5 b83c 0066 99b9 205a 8f3b 1a75 9dbd
00000230: 4470 0d3d 2006 d53c f48b 88bc 7a8a 043e
00000240: 7954 91bd 4e84 89bd f8f0 58bd 3025 45bd
00000250: 1eb6 53bd b028 90bd a0b6 d13b 50df 4a3c
00000260: ccda b2bc b841 1b3d 6010 833c f41a 033e
00000270: 15d0 e9bd 54c7 823d 38ea b03d ec96 0ebd
00000280: a00a 4d3d ece9 cdbc d3c6 0fbe 77a1 cabd
00000290: bce8 4e3d 60f3 6b3c c749 9abd f0a3 993d
000002a0: 8c74 f03d 3a17 a23d f8f7 e63d 86b6 da3d
000002b0: 42e6 073e 54f0 443d e83b 713d 844e 4cbd
000002c0: 8009 30bb a0ac 853d 1403 60bd fc56 ed3d
000002d0: fa69 d8bb da51 b7bf c219 003e 0420 76c1
000002e0: 8abd 0cbf 74ed 0d3d 0544 ad3d a0fd 83bf
000002f0: b8c4 1a3d b5d1 33c0 a858 f33d f1c4 cdbc
00000300: 90a5 f93d e2f1 29bd 207c 78bc b293 0dbe
00000310: 34ec 65bd b0d8 c63c 1fd2 06be 5a40 b23d
00000320: e03e 063c a869 c0bd 14b2 013e 68fb 403d
00000330: 7258 093e 3258 07be 84ef 5e3d e450 bb3d
00000340: 9c77 cebd a079 5e3d 0883 c23c 547c e53d
00000350: ee15 023e a859 ea3d 3e6e 78bd d10d d4bd
00000360: 32d9 eabd e0be c7bb c608 71bd 04df 043e
00000370: e8cc 603d 2471 b8bd 1655 ab3d c1a9 05be
00000380: 7084 cc3d c94b dc3b 6a53 debe d803 28be
00000390: 0150 22c0 5db6 d8be 39b6 f6bd 9969 9dbd
000003a0: 0a91 d63d 7c55 703d 4c09 5abf a520 88bb
000003b0: 655b 4cbe 5934 23bd 46c3 ab3d b63c aa3d
000003c0: dc10 bbbc 5216 6abd cd41 94bd d282 0bbd
000003d0: 7f90 81bd 68ca fcbc bce6 03bd a0ef 973b
000003e0: 3837 64bd 0cd8 693d 0858 efbd 120a b8bd
000003f0: 34fb e0bd d0f3 5a3c c263 dc3d f261 04be

net.0.bias f4 [256]
0.0 0.0 0.0 0.0 0.042191066 -0.12061128 0.0 -0.11676061
-0.052887592 -0.053143155 -0.6646833 -0.03405707 -0.046547733 -0.13709041 -0.018485373 0.0
0.0016680683 -0.003968319 0.0 -0.005338927 -0.003220048 -0.0058434187 -0.04183507 0.0
0.0 0.0053971917 -0.02952892 -0.033815015 0.0 0.0 -0.058595028 0.0
-0.11421793 -0.019400936 -0.041188467 -0.03093316 -0.050931748 0.0 0.0 -0.017515099
0.0 -0.06897323 0.0 0.0 0.0 -0.14950013 -0.009065683 -0.027755825
0.12960432 0.0 -0.08022673 0.0 0.0 -0.05724173 0.0 0.0
0.0 0.0 -0.025470229 0.0 0.020829072 -0.004495395 -0.031305432 -0.13227427
0.0 -0.018095613 0.007688557 -0.18419397 0.0 -0.008322959 -0.017197795 0.0
0.0073598106 -0.03869608 0.0 -0.065328844 -0.13226429 0.0 0.0 -0.06804204
0.0 0.0 -0.004086841 -0.0013664832 0.0 0.0024655487 0.0 0.0046091415
0.0 -0.014699449 -0.02245528 -0.0021665602 -0.013444169 0.0 0.0342726 0.0
-0.008616986 0.0 -0.03560262 -0.24907875 -0.019734858 0.059981015 -0.100001924 -0.029473292
-0.022438528 -0.023400111 0.0 0.0 -0.07261621 0.0 -0.043516777 0.0
-0.018061856 -0.033055823 -0.0048188516 -0.03248175 -0.026351796 -0.043026257 -0.34027338 0.0
0.0 0.024028923 0.0 -0.09083403 -0.04235421 -0.16099195 -0.27118218 -0.008290344
0.11759812 -0.008396171 -0.80535984 0.0 -0.0078113033 -0.093273304 0.0 -0.057752434
-0.06839815 -0.078115165 -0.028282322 -0.02257095 -0.09263599 -0.095393285 -0.0016538042 0.0
0.0 0.0 0.018448906 0.0 0.017446024 -0.0359792 0.0 -0.0063436194
-0.048705522 -0.017454142 0.0 -0.079980314 0.0 0.0 -0.05223138 -0.045727238
0.0 -0.026115164 -0.716564 -0.066558845 -0.02002596 -0.53407615 0.0 -0.003350953
0.0 0.0 0.0 -0.025984468 0.0 0.011138227 -0.014347121 -0.5963309
0.0 0.0 -0.059657585 -0.04146819 -0.41145986 0.001392896 -0.089154586 -0.037805043
0.0 0.0 0.0 -0.08671848 0.0 -0.090753615 0.0 0.0
0.013000496 -0.072670855 -0.048290137 -0.046747718 -0.009396884 0.0 -0.13923892 -0.0049338476
0.0 -0.17649 -0.003005871 -0.086244665 -0.250683 0.009787842 -0.012241587 -0.027977433
-0.04375984 -0.09308976 -0.01093435 0.01858984 -0.028468838 -0.0037125535 -0.07715758 -0.02734445
0.0 -0.18366186 -0.047411613 -0.00846533 -0.04548726 -0.0061807907 0.00677774 -0.037310794
0.0 0.0 0.0 -0.039479546 -0.059920862 0.0 0.0 -0.06547772
-0.07236956 0.0 -0.051803585 -0.0014221576 0.0 -0.0359112 0.0 0.0
0.0 0.05346913 -0.071700215 -0.028335191 -0.12966625 -0.018080631 -0.052841064 0.0
0.009181061 -0.026676068 -0.044991273 -0.010750883 0.0 -0.04230889 0.064885 -0.029776113
00000000: 0000 0000 0000 0000 0000 0000 0000 0000
00000010: 8ad0 2c3d 0c03 f7bd 0000 0000 3020 efbd
00000020: a9a0 58bd a3ac 59bd af28 2abf 6d7f 0bbd
00000030: d6a8 3ebd 6e61 0cbe a36e 97bc 0000 0000
00000040: 16a3 da3a ac08 82bb 0000 0000 2af2 aebb
00000050: 7107 53bb 267a bfbb 405b 2bbd 0000 0000
00000060: 0000 0000 edda b03b a2e6 f1bc 9d81 0abd
00000070: 0000 0000 0000 0000 5701 70bd 0000 0000
00000080: 17eb e9bd b6ee 9ebc 3db5 28bd 8a67 fdbc
00000090: cf9d 50bd 0000 0000 0000 0000 d37b 8fbc
000000a0: 0000 0000 d641 8dbd 0000 0000 0000 0000
000000b0: 0000 0000 9016 19be 3b88 14bc 2f60 e3bc
000000c0: ffb6 043e 0000 0000 e94d a4bd 0000 0000
000000d0: 0000 0000 4e76 6abd 0000 0000 0000 0000
000000e0: 0000 0000 0000 0000 f1a6 d0bc 0000 0000
000000f0: bba1 aa3c 1b4e 93bb 203a 00bd e872 07be
00000100: 0000 0000 403d 94bc 4af0 fb3b 589d 3cbe
00000110: 0000 0000 055d 08bc 64e2 8cbc 0000 0000
00000120: 912a f13b c87f 1ebd 0000 0000 21cb 85bd
00000130: 4a70 07be 0000 0000 0000 0000 a059 8bbd
00000140: 0000 0000 0000 0000 e8ea 85bb 911b b3ba
00000150: 0000 0000 0b95 213b 0000 0000 4808 973b
00000160: 0000 0000 f5d5 70bc 23f4 b7bc d9fc 0dbb
00000170: ef44 5cbc 0000 0000 6d61 0c3d 0000 0000
00000180: 422e 0dbc 0000 0000 0ed4 11bd 800e 7fbe
00000190: ffaa a1bc a7ae 753d cfcd ccbd f971 f1bc
000001a0: 01d1 b7bc 97b1 bfbc 0000 0000 0000 0000
000001b0: cfb7 94bd 0000 0000 a63e 32bd 0000 0000
000001c0: 75f6 93bc 8b65 07bd 75e7 9dbb 950b 05bd
000001d0: b9df d7bc 4d3c 30bd 5038 aebe 0000 0000
000001e0: 0000 0000 4ed8 c43c 0000 0000 3107 babd
000001f0: 9c7b 2dbd 13db 24be 64d8 8abe 39d4 07bc
00000200: 48d7 f03d 1890 09bc 102c 4ebf 0000 0000
00000210: f6f5 ffbb 1306 bfbd 0000 0000 d18d 6cbd
00000220: 5414 8cbd d8fa 9fbd 54b0 e7bc b7e6 b8bc
00000230: f0b7 bdbd 8e5d c3bd 76c4 d8ba 0000 0000
00000240: 0000 0000 0000 0000 2922 973c 0000 0000
00000250: f7ea 8e3c ed5e 13bd 0000 0000 23de cfbb
00000260: 717f 47bd fdfb 8ebc 0000 0000 b8cc a3bd
00000270: 0000 0000 0000 0000 92f0 55bd 7c4c 3bbd
00000280: 0000 0000 78ef d5bc bd70 37bf 0150 88bd
00000290: 7b0d a4bc 37b9 08bf 0000 0000 aa9b 5bbb
000002a0: 0000 0000 0000 0000 0000 0000 61dd d4bc
000002b0: 0000 0000 1c7d 363c 3010 6bbc 24a9 18bf
000002c0: 0000 0000 0000 0000 835b 74bd 8cda 29bd
000002d0: deaa d2be d691 b63a ae96 b6bd 76d9 1abd
000002e0: 0000 0000 0000 0000 0000 0000 7599 b1bd
000002f0: 0000 0000 08dd b9bd 0000 0000 0000 0000
00000300: 0800 553c 75d4 94bd e1cb 45bd 897a 3fbd
00000310: 63f5 19bc 0000 0000 a694 0ebe 1dac a1bb
00000320: 0000 0000 cbb9 34be 26fe 44bb 0ba1 b0bd
00000330: 8659 80be 2f5d 203c f090 48bc ee30 e5bc
00000340: 853d 33bd d8a5 bebd fd25 33bc b849 983c
00000350: 7b37 e9bc 504e 73bb cb04 9ebd 7801 e0bc
00000360: 0000 0000 db11 3cbe ae32 42bd 2bb2 0abc
00000370: d950 3abd 3b88 cabb ce17 de3b 34d3 18bd
00000380: 0000 0000 0000 0000 0000 0000 4eb5 21bd
00000390: 946f 75bd 0000 0000 0000 0000 2f19 86bd
000003a0: 7e36 94bd 0000 0000 ff2f 54bd b167 baba
000003b0: 0000 0000 9f17 13bd 0000 0000 0000 0000
000003c0: 0000 0000 7202 5b3d 90d7 92bd 341f e8bc
000003d0: 3bc7 04be d51d 94bc df6f 58bd 0000 0000
000003e0: 296c 163c c587 dabc c548 38bd 7924 30bc
000003f0: 0000 0000 164c 2dbd 6de2 843d 09ed f3bc

net.2.weight f4 [256]
1.0 1.0 1.0 1.0 1.3160039 0.79702723 1.0 0.605322
0.88914096 0.9365829 3.6436284 0.7300215 0.8853871 0.80152506 0.9880233 1.0
1.0366694 0.99954265 1.0 1.1855183 0.99357164 0.9986975 1.0892123 1.0
1.0 1.035024 0.96051717 0.98312616 1.0 1.0 0.42589983 1.0
0.9182056 0.9515999 0.6837848 0.97252935 0.9674347 1.0 1.0 0.9725054
1.0 0.90967447 1.0 1.0 1.0 1.7277426 1.2368407 0.9284262
0.8492407 1.0 0.85199034 1.0 1.0 0.98557055 1.0 1.0
1.0 1.0 1.0449312 1.0 0.82676446 0.99994755 0.948754 0.7421046
1.0 1.2831113 1.0114527 0.9196664 1.0 0.9965088 0.7213991 1.0
1.1785403 0.9230804 1.0 0.9512665 1.3638572 1.0 1.0 0.957813
1.0 1.0 0.9563524 0.9999454 1.0 1.6300188 1.0 1.2486135
1.0 1.0591555 1.080635 0.9998324 1.0222067 1.0 1.4866233 1.0
0.98872757 1.0 0.9472954 0.45632586 1.188487 0.73285246 0.9542737 0.9395083
0.9655016 0.9800169 1.0 1.0 0.909931 1.0 0.977934 1.0
0.9657689 1.0114799 0.9994652 1.0253891 0.97498286 0.96914124 0.9387963 1.0
1.0 0.1364578 1.0 0.6877333 0.96034074 0.5623456 0.77391165 0.9214991
0.62937826 0.9987983 3.60739 1.0 0.97673047 0.91390914 1.0 0.9401561
0.8408939 0.8838655 0.96265566 0.9312545 0.96053827 0.91818875 0.99951684 1.0
1.0 1.0 1.2748301 1.0 1.9873984 0.934811 1.0 0.9708363
0.38592103 0.54298747 1.0 0.8831453 1.0 1.0 0.87124133 0.96871084
1.0 0.31979167 2.2053173 0.73725283 0.96392363 1.1127688 1.0 1.2010045
1.0 1.0 1.0 1.0416794 1.0 1.1558833 1.0155435 1.552641
1.0 1.0 1.0072799 0.9575022 1.5420622 1.0117378 0.5945016 0.9587118
1.0 1.0 1.0 0.86948067 1.0 1.0409633 1.0 1.0
1.177191 0.9194349 0.9609568 0.9658368 1.079737 1.0 0.9689852 0.99991083
1.0 0.8420627 1.1722796 0.93326163 0.5158502 1.3813462 0.993623 0.97010887
0.999621 0.6942709 0.9937392 1.1845044 0.9737516 0.99633276 0.93083143 0.82329905
1.0 0.42150253 0.99233526 0.99298203 0.7255348 1.0007119 1.1646981 0.8849378
1.0 1.0 1.0 1.0522382 0.94084245 1.0 1.0 0.84816754
1.8227062 1.0 0.5395811 1.1316646 1.0 0.9386721 1.0 1.0
1.0 1.4914317 0.6158145 0.9957807 0.8591775 0.96782684 0.8637857 1.0
1.120186 0.5589849 0.9529794 0.9880925 1.0 0.57425624 0.85644203 0.9713612
00000000: 0000 803f 0000 803f 0000 803f 0000 803f
00000010: d172 a83f fa09 4c3f 0000 803f 62f6 1a3f
00000020: be9e 633f e6c3 6f3f 3531 6940 b0e2 3a3f
00000030: bba8 623f bf30 4d3f 18ef 7c3f 0000 803f
00000040: 95b1 843f 07e2 7f3f 0000 803f 10bf 973f
00000050: b65a 7e3f a4aa 7f3f 4f6b 8b3f 0000 803f
00000060: 0000 803f ab7b 843f 74e4 753f 28ae 7b3f
00000070: 0000 803f 0000 803f 8b0f da3e 0000 803f
00000080: 860f 6b3f 0d9c 733f 850c 2f3f aff7 783f
00000090: cda9 773f 0000 803f 0000 803f 1df6 783f
000000a0: 0000 803f 6de0 683f 0000 803f 0000 803f
000000b0: 0000 803f ab26 dd3f cc50 9e3f 57ad 6d3f
000000c0: d767 593f 0000 803f 0a1c 5a3f 0000 803f
000000d0: 0000 803f 5a4e 7c3f 0000 803f 0000 803f
000000e0: 0000 803f 0000 803f 4ec0 853f 0000 803f
000000f0: d6a6 533f 90fc 7f3f 8be1 723f 91fa 3d3f
00000100: 0000 803f fe3c a43f 4877 813f 426f 6b3f
00000110: 0000 803f 331b 7f3f 9dad 383f 0000 803f
00000120: 69da 963f ff4e 6c3f 0000 803f 3486 733f
00000130: df92 ae3f 0000 803f 0000 803f 3c33 753f
00000140: 0000 803f 0000 803f 83d3 743f 6cfc 7f3f
00000150: 0000 803f 75a4 d03f 0000 803f 91d2 9f3f
00000160: 0000 803f 6892 873f 3f52 8a3f 04f5 7f3f
00000170: abd7 823f 0000 803f ac49 be3f 0000 803f
00000180: 401d 7d3f 0000 803f f481 723f 8ba3 e93e
00000190: 5820 983f 389c 3b3f 484b 743f 9e83 703f
000001a0: 1d2b 773f 63e2 7a3f 0000 803f 0000 803f
000001b0: 3df1 683f 0000 803f e259 7a3f 0000 803f
000001c0: a13c 773f 2c78 813f f4dc 7f3f f33f 833f
000001d0: 7a98 793f a419 783f f454 703f 0000 803f
000001e0: 0000 803f 98bb 0b3e 0000 803f 4a0f 303f
000001f0: e4d8 753f e2f5 0f3f 131f 463f 5de7 6b3f
00000200: ef1e 213f 3fb1 7f3f 7adf 6640 0000 803f
00000210: 020b 7a3f f3f5 693f 0000 803f 12ae 703f
00000220: d344 573f 0245 623f 9a70 763f b266 6e3f
00000230: d6e5 753f 6b0e 6b3f 56e0 7f3f 0000 803f
00000240: 0000 803f 0000 803f a22d a33f 0000 803f
00000250: 1263 fe3f c64f 6f3f 0000 803f ba88 783f
00000260: 7197 c53e 3a01 0b3f 0000 803f cf15 623f
00000270: 0000 803f 0000 803f ac09 5f3f 6ffd 773f
00000280: 0000 803f bcbb a33e eb23 0d40 9abc 3c3f
00000290: b3c3 763f 356f 8e3f 0000 803f 84ba 993f
000002a0: 0000 803f 0000 803f 0000 803f c055 853f
000002b0: 0000 803f fcf3 933f 54fd 813f f1bc c63f
000002c0: 0000 803f 0000 803f 8cee 803f dd1e 753f
000002d0: 4b62 c53f a080 813f 4231 183f 236e 753f
000002e0: 0000 803f 0000 803f 0000 803f 4996 5e3f
000002f0: 0000 803f 493e 853f 0000 803f 0000 803f
00000300: 32ae 963f 1660 6b3f 4401 763f 1541 773f
00000310: d234 8a3f 0000 803f 6a0f 783f 28fa 7f3f
00000320: 0000 803f 6c91 573f 420d 963f 3cea 6e3f
00000330: c20e 043f f4cf b03f 145e 7e3f 0e59 783f
00000340: 29e7 7f3f bdbb 313f b165 7e3f d79d 973f
00000350: c947 793f aa0f 7f3f f84a 6e3f bac3 523f
00000360: 0000 803f 2ecf d73e af09 7e3f 1234 7e3f
00000370: a6bc 393f 5417 803f d414 953f 498b 623f
00000380: 0000 803f 0000 803f 0000 803f beaf 863f
00000390: 0ddb 703f 0000 803f 0000 803f 8221 593f
000003a0: 704e e93f 0000 803f fd21 0a3f 63da 903f
000003b0: 0000 803f d14c 703f 0000 803f 0000 803f
000003c0: 0000 803f 3ce7 be3f 05a6 1d3f 7ceb 7e3f
000003d0: 0ef3 5b3f 80c3 773f 0f21 5d3f 0000 803f
000003e0: 4162 8f3f a219 0f3f 75f6 733f a1f3 7c3f
000003f0: 0000 803f 7502 133f c93f 5b3f 21ab 783f

net.2.bias f4 [256]
0.0006646101 0.0027961985 0.0012625443 0.00038671715 -0.3230422 -0.25108624 8.830409e-05 -0.0020680702
-0.007623416 -0.004614764 -0.59381527 -0.081906796 -0.0052671307 -0.0075422814 0.0064663263 -0.0065091243
-0.46144238 0.0070839315 -0.0015658174 -0.0025242714 -0.0060790335 -0.0036673169 0.008391207 0.0012127275
0.0087318085 -0.470493 -0.008062108 -0.010931767 -0.00010026645 -0.0038250396 -0.004789037 -0.006534304
0.0016866277 -0.0068597766 -0.1448681 0.009336075 -0.001961945 -0.0053689405 0.008618304 -0.000786987
0.004538168 -0.005597824 0.003967795 -0.001821945 0.009649645 -0.83204526 0.004848838 -0.0035468866
-0.08163536 0.007332999 -0.00029531788 -0.007147038 -0.002058158 0.00253383 -0.005689344 -0.005898251
-0.003331293 0.005595664 -0.008306757 -0.0032125073 -0.6704552 0.00094948144 -0.0011486183 -0.3942818
0.008288588 -0.48628816 -0.40890062 -0.5328314 0.009584973 0.004794897 -0.560414 0.00058920146
-0.008083395 0.010373637 0.0052000284 0.00054933934 -0.40855685 -0.009573347 -0.009348358 -0.009466455
-0.0043430906 -0.010826291 -0.0072559835 -0.003942397 -0.0056169517 -0.5171497 -0.0021901743 0.002175479
-0.008295689 -0.0036404121 -0.0037979325 0.010783432 0.005033412 5.8977683e-05 0.0047630365 -0.00751357
-0.005444949 0.0048056273 -0.0007041345 -0.4383226 -0.0017150433 -0.0023748106 -0.27764806 0.008550774
-0.0020558275 -0.0028761004 0.011818228 0.009747801 -0.0064509925 0.012318252 0.005658169 0.0101429885
-0.0063341963 -0.005149995 0.001087559 -0.00013640794 8.9675e-05 -0.00337526 -0.5857531 0.008282504
0.0032303026 -0.536988 0.007294962 -0.19461049 0.0055343052 -0.25792247 -0.28082383 -0.004466982
0.0027760756 0.009760175 -0.29434478 0.0038783033 0.0013507187 0.0010292595 0.0067324135 0.00042777433
0.0033658363 0.002836384 -0.0011368662 -0.00093146815 0.0042002546 0.0036243885 -0.008476997 0.0013918456
-0.0018223028 -0.002064379 -0.358422 -0.008400482 -0.4240579 -0.008826617 0.009239664 0.00061240466
-0.08984608 0.006854508 0.0062509915 -0.0052257003 0.001795593 -0.00093717786 -0.0035871256 -0.009637798
0.0039805123 -0.009867394 -0.4894271 -0.11230794 -0.0061372602 -0.6372663 -0.008450115 -0.5639394
-0.0042442917 -0.0011670304 -0.008361511 -0.17904092 -0.0007265568 0.013226406 -0.16658305 -0.71448225
0.002373544 -0.007156947 0.0053418344 0.010777355 -0.6339099 0.0068960683 -0.0030511362 0.005333011
0.003460871 -0.0007100302 0.0045891274 0.008933789 0.00842457 0.008018518 -0.005989739 -0.0008014693
-0.4509549 0.009065563 -0.0095582465 0.0019205667 0.1080078 -0.007789327 0.0016746006 0.0020517972
0.010815207 -0.46369147 -0.34867108 0.008385753 -0.21089263 -0.3028969 -0.0005523305 -0.008085177
-0.0042671068 0.0047099437 -0.0048234966 -0.35041675 -0.0051118312 0.0058733174 0.0032941746 -0.31279463
-0.0047066524 -0.39963913 -0.00038747033 0.0013551341 -0.20872739 0.008961735 -0.3377985 -0.002233172
-0.00045338538 0.008487499 0.0100563085 -0.0033025674 0.0047525773 0.0060759 -0.0024622448 -0.001615898
-0.7215354 0.0014099737 -0.48146465 0.00835833 -0.0058274814 -0.14242357 -0.006943325 0.0030461226
-0.00567877 -0.12182882 0.00531228 -0.23076162 -0.008927103 0.00618694 -0.21607283 0.0108680725
-0.002763998 -0.0019343876 0.006610823 0.00064983155 0.001461267 0.0058865137 -0.37439296 -0.009550627
00000000: 3b39 2e3a 6d40 373b f57b a53a 4cc0 ca39
00000010: ca65 a5be 608e 80be e62f b938 7688 07bb
00000020: d9cd f9bb 7237 97bb 4704 18bf c0be a7bd
00000030: e597 acbb 3e25 f7bb 7ae3 d33b 7e4a d5bb
00000040: 2d42 ecbe 5320 e83b 1d3c cdba 3f6e 25bb
00000050: a132 c7bb 5e57 70bb 467b 093c 62f4 9e3a
00000060: dc0f 0f3c 75e4 f0be ef16 04bc 271b 33bc
00000070: 2446 d2b8 84ad 7abb 5bed 9cbb b71d d6bb
00000080: d611 dd3a fac7 e0bb 4e58 14be 56f6 183c
00000090: fa93 00bb f0ed afbb c933 0d3c ce4d 4eba
000000a0: eab4 943b f46d b7bb 4704 823b 54ce eeba
000000b0: 8b19 1e3c eb00 55bf 00e3 9e3b e272 68bb
000000c0: 7130 a7bd a749 f03b e5d4 9ab9 b331 eabb
000000d0: 29e2 06bb 9d0e 263b ad6d babb 1e46 c1bb
000000e0: d251 5abb d55b b73b 1019 08bc ee88 52bb
000000f0: f4a2 2bbf 9fe6 783a 3c8d 96ba 4edf c9be
00000100: dccc 073c c3fa f8be 6c5b d1be a367 08bf
00000110: 4a0a 1d3c 831e 9d3b 4b77 0fbf a474 1a3a
00000120: 3770 04bc 30f6 293c 0065 aa3b 8a01 103a
00000130: 5d2e d1be 87d9 1cbc db29 19bc 3119 1bbc
00000140: 7c50 8ebb c160 31bc 9ac3 edbb 392f 81bb
00000150: 680e b8bb ec63 04bf 0789 0fbb 7b92 0e3b
00000160: a4ea 07bc fb93 6ebb bce6 78bb feac 303c
00000170: 52ef a43b ce5e 7738 3f13 9c3b 6534 f6bb
00000180: 8b6b b2bb 8678 9d3b ab95 38ba d26b e0be
00000190: 4ecb e0ba b6a2 1bbb e327 8ebe 8c18 0c3c
000001a0: 10bb 06bb f57c 3cbb 3ea1 413c 3eb5 1f3c
000001b0: d962 d3bb 7ed2 493c 2968 b93b c72e 263c
000001c0: 178f cfbb 4ac1 a8bb 6d8c 8e3a ba08 0fb9
000001d0: e60f bc38 7733 5dbb eaf3 15bf 57b3 073c
000001e0: 7cb3 533b 0c78 09bf 940a ef3b f947 47be
000001f0: 1e59 b53b 6a0e 84be 24c8 8fbe c35f 92bb
00000200: d2ee 353b 24e9 1f3c 5cb4 96be 222b 7e3b
00000210: 990a b13a 38e8 863a 949b dc3b e646 e039
00000220: 5d95 5c3b a1e2 393b e602 95ba c52d 74ba
00000230: 4aa2 893b 2687 6d3b 1ae3 0abc 976e b63a
00000240: 56da eeba 884a 07bb 1783 b7be 2da2 09bc
00000250: 1e1e d9be 849d 10bc f661 173c c889 203a
00000260: 3901 b8bd c89b e03b 1ed5 cc3b 5a3c abbb
00000270: 1a5a eb3a f1ac 75ba fb15 6bbb dbe7 1dbc
00000280: f56e 823b daaa 21bc 3096 fabe b501 e6bd
00000290: 121b c9bb e223 23bf 5a72 0abc 555e 10bf
000002a0: b313 8bbb 0bf7 98ba b8fe 08bc 8156 37be
000002b0: 6776 3eba 91b3 583c bf94 2abe 4fe8 36bf
000002c0: 768d 1b3b d384 eabb 8e0a af3b 8193 303c
000002d0: eb47 22bf 6af8 e13b 92f5 47bb 8ac0 ae3b
000002e0: c8cf 623b 5221 3aba 6460 963b 075f 123c
000002f0: 3507 0a3c 1a60 033c 9345 c4bb b219 52ba
00000300: 90e3 e6be ba87 143c 319a 1cbc 86bb fb3a
00000310: 3233 dd3d 9c3d ffbb 467e db3a 7277 063b
00000320: 4432 313c f868 edbe 0485 b2be 6664 093c
00000330: 3df4 57be 4d15 9bbe 46ca 10ba b177 04bc
00000340: 16d3 8bbb df55 9a3b 6c0e 9ebb d369 b3be
00000350: 2681 a7bb f574 c03b 14e3 573b 9e26 a0be
00000360: 433a 9abb 809d ccbe 6325 cbb9 c19e b13a
00000370: a2bc 55be 3ed4 123c edf3 acbe 695a 12bb
00000380: 5bb4 edb9 270f 0b3c 37c3 243c e36f 58bb
00000390: 82bb 9b3b 5818 c73b 9d5d 21bb 8acc d3ba
000003a0: 8bb6 38bf dece b83a 8982 f6be 60f1 083c
000003b0: 75f4 bebb 7cd7 11be d584 e3bb 75a1 473b
000003c0: fa14 babb 6381 f9bd a212 ae3b c64c 6cbe
000003d0: fc42 12bc d0bb ca3b 3242 5dbe 0010 323c
000003e0: 3124 35bb 478b fdba 9a9f d83b 7559 2a3a
000003f0: fc87 bf3a a8e3 c03b 6fb0 bfbe 3c7a 1cbc

net.2.running_mean f4 [256]
0.0 0.0 0.0 0.0 0.0 0.0 0.0 0.0
0.0 0.0 0.0 0.0 0.0 0.0 0.0 0.0
0.0 0.0 0.0 0.0 0.0 0.0 0.0 0.0
0.0 0.0 0.0 0.0 0.0 0.0 0.0 0.0
0.0 0.0 0.0 0.0 0.0 0.0 0.0 0.0
0.0 0.0 0.0 0.0 0.0 0.0 0.0 0.0
0.0 0.0 0.0 0.0 0.0 0.0 0.0 0.0
0.0 0.0 0.0 0.0 0.0 0.0 0.0 0.0
0.0 0.0 0.0 0.0 0.0 0.0 0.0 0.0
0.0 0.0 0.0 0.0 0.0 0.0 0.0 0.0
0.0 0.0 0.0 0.0 0.0 0.0 0.0 0.0
0.0 0.0 0.0 0.0 0.0 0.0 0.0 0.0
0.0 0.0 0.0 0.0 0.0 0.0 0.0 0.0
0.0 0.0 0.0 0.0 0.0 0.0 0.0 0.0
0.0 0.0 0.0 0.0 0.0 0.0 0.0 0.0
0.0 0.0 0.0 0.0 0.0 0.0 0.0 0.0
0.0 0.0 0.0 0.0 0.0 0.0 0.0 0.0
0.0 0.0 0.0 0.0 0.0 0.0 0.0 0.0
0.0 0.0 0.0 0.0 0.0 0.0 0.0 0.0
0.0 0.0 0.0 0.0 0.0 0.0 0.0 0.0
0.0 0.0 0.0 0.0 0.0 0.0 0.0 0.0
0.0 0.0 0.0 0.0 0.0 0.0 0.0 0.0
0.0 0.0 0.0 0.0 0.0 0.0 0.0 0.0
0.0 0.0 0.0 0.0 0.0 0.0 0.0 0.0
0.0 0.0 0.0 0.0 0.0 0.0 0.0 0.0
0.0 0.0 0.0 0.0 0.0 0.0 0.0 0.0
0.0 0.0 0.0 0.0 0.0 0.0 0.0 0.0
0.0 0.0 0.0 0.0 0.0 0.0 0.0 0.0
0.0 0.0 0.0 0.0 0.0 0.0 0.0 0.0
0.0 0.0 0.0 0.0 0.0 0.0 0.0 0.0
0.0 0.0 0.0 0.0 0.0 0.0 0.0 0.0
0.0 0.0 0.0 0.0 0.0 0.0 0.0 0.0
00000000: 0000 0000 0000 0000 0000 0000 0000 0000
00000010: 0000 0000 0000 0000 0000 0000 0000 0000
00000020: 0000 0000 0000 0000 0000 0000 0000 0000
00000030: 0000 0000 0000 0000 0000 0000 0000 0000
00000040: 0000 0000 0000 0000 0000 0000 0000 0000
00000050: 0000 0000 0000 0000 0000 0000 0000 0000
00000060: 0000 0000 0000 0000 0000 0000 0000 0000
00000070: 0000 0000 0000 0000 0000 0000 0000 0000
00000080: 0000 0000 0000 0000 0000 0000 0000 0000
00000090: 0000 0000 0000 0000 0000 0000 0000 0000
000000a0: 0000 0000 0000 0000 0000 0000 0000 0000
000000b0: 0000 0000 0000 0000 0000 0000 0000 0000
000000c0: 0000 0000 0000 0000 0000 0000 0000 0000
000000d0: 0000 0000 0000 0000 0000 0000 0000 0000
000000e0: 0000 0000 0000 0000 0000 0000 0000 0000
000000f0: 0000 0000 0000 0000 0000 0000 0000 0000
00000100: 0000 0000 0000 0000 0000 0000 0000 0000
00000110: 0000 0000 0000 0000 0000 0000 0000 0000
00000120: 0000 0000 0000 0000 0000 0000 0000 0000
00000130: 0000 0000 0000 0000 0000 0000 0000 0000
00000140: 0000 0000 0000 0000 0000 0000 0000 0000
00000150: 0000 0000 0000 0000 0000 0000 0000 0000
00000160: 0000 0000 0000 0000 0000 0000 0000 0000
00000170: 0000 0000 0000 0000 0000 0000 0000 0000
00000180: 0000 0000 0000 0000 0000 0000 0000 0000
00000190: 0000 0000 0000 0000 0000 0000 0000 0000
000001a0: 0000 0000 0000 0000 0000 0000 0000 0000
000001b0: 0000 0000 0000 0000 0000 0000 0000 0000
000001c0: 0000 0000 0000 0000 0000 0000 0000 0000
000001d0: 0000 0000 0000 0000 0000 0000 0000 0000
000001e0: 0000 0000 0000 0000 0000 0000 0000 0000
000001f0: 0000 0000 0000 0000 0000 0000 0000 0000
00000200: 0000 0000 0000 0000 0000 0000 0000 0000
00000210: 0000 0000 0000 0000 0000 0000 0000 0000
00000220: 0000 0000 0000 0000 0000 0000 0000 0000
00000230: 0000 0000 0000 0000 0000 0000 0000 0000
00000240: 0000 0000 0000 0000 0000 0000 0000 0000
00000250: 0000 0000 0000 0000 0000 0000 0000 0000
00000260: 0000 0000 0000 0000 0000 0000 0000 0000
00000270: 0000 0000 0000 0000 0000 0000 0000 0000
00000280: 0000 0000 0000 0000 0000 0000 0000 0000
00000290: 0000 0000 0000 0000 0000 0000 0000 0000
000002a0: 0000 0000 0000 0000 0000 0000 0000 0000
000002b0: 0000 0000 0000 0000 0000 0000 0000 0000
000002c0: 0000 0000 0000 0000 0000 0000 0000 0000
000002d0: 0000 0000 0000 0000 0000 0000 0000 0000
000002e0: 0000 0000 0000 0000 0000 0000 0000 0000
000002f0: 0000 0000 0000 0000 0000 0000 0000 0000
00000300: 0000 0000 0000 0000 0000 0000 0000 0000
00000310: 0000 0000 0000 0000 0000 0000 0000 0000
00000320: 0000 0000 0000 0000 0000 0000 0000 0000
00000330: 0000 0000 0000 0000 0000 0000 0000 0000
00000340: 0000 0000 0000 0000 0000 0000 0000 0000
00000350: 0000 0000 0000 0000 0000 0000 0000 0000
00000360: 0000 0000 0000 0000 0000 0000 0000 0000
00000370: 0000 0000 0000 0000 0000 0000 0000 0000
00000380: 0000 0000 0000 0000 0000 0000 0000 0000
00000390: 0000 0000 0000 0000 0000 0000 0000 0000
000003a0: 0000 0000 0000 0000 0000 0000 0000 0000
000003b0: 0000 0000 0000 0000 0000 0000 0000 0000
000003c0: 0000 0000 0000 0000 0000 0000 0000 0000
000003d0: 0000 0000 0000 0000 0000 0000 0000 0000
000003e0: 0000 0000 0000 0000 0000 0000 0000 0000
000003f0: 0000 0000 0000 0000 0000 0000 0000 0000

net.2.running_var f4 [256]
1.0 1.0 1.0 1.0 1.0 1.0 1.0 1.0
1.0 1.0 1.0 1.0 1.0 1.0 1.0 1.0
1.0 1.0 1.0 1.0 1.0 1.0 1.0 1.0
1.0 1.0 1.0 1.0 1.0 1.0 1.0 1.0
1.0 1.0 1.0 1.0 1.0 1.0 1.0 1.0
1.0 1.0 1.0 1.0 1.0 1.0 1.0 1.0
1.0 1.0 1.0 1.0 1.0 1.0 1.0 1.0
1.0 1.0 1.0 1.0 1.0 1.0 1.0 1.0
1.0 1.0 1.0 1.0 1.0 1.0 1.0 1.0
1.0 1.0 1.0 1.0 1.0 1.0 1.0 1.0
1.0 1.0 1.0 1.0 1.0 1.0 1.0 1.0
1.0 1.0 1.0 1.0 1.0 1.0 1.0 1.0
1.0 1.0 1.0 1.0 1.0 1.0 1.0 1.0
1.0 1.0 1.0 1.0 1.0 1.0 1.0 1.0
1.0 1.0 1.0 1.0 1.0 1.0 1.0 1.0
1.0 1.0 1.0 1.0 1.0 1.0 1.0 1.0
1.0 1.0 1.0 1.0 1.0 1.0 1.0 1.0
1.0 1.0 1.0 1.0 1.0 1.0 1.0 1.0
1.0 1.0 1.0 1.0 1.0 1.0 1.0 1.0
1.0 1.0 1.0 1.0 1.0 1.0 1.0 1.0
1.0 1.0 1.0 1.0 1.0 1.0 1.0 1.0
1.0 1.0 1.0 1.0 1.0 1.0 1.0 1.0
1.0 1.0 1.0 1.0 1.0 1.0 1.0 1.0
1.0 1.0 1.0 1.0 1.0 1.0 1.0 1.0
1.0 1.0 1.0 1.0 1.0 1.0 1.0 1.0
1.0 1.0 1.0 1.0 1.0 1.0 1.0 1.0
1.0 1.0 1.0 1.0 1.0 1.0 1.0 1.0
1.0 1.0 1.0 1.0 1.0 1.0 1.0 1.0
1.0 1.0 1.0 1.0 1.0 1.0 1.0 1.0
1.0 1.0 1.0 1.0 1.0 1.0 1.0 1.0
1.0 1.0 1.0 1.0 1.0 1.0 1.0 1.0
1.0 1.0 1.0 1.0 1.0 1.0 1.0 1.0
00000000: 0000 803f 0000 803f 0000 803f 0000 803f
00000010: 0000 803f 0000 803f 0000 803f 0000 803f
00000020: 0000 803f 0000 803f 0000 803f 0000 803f
00000030: 0000 803f 0000 803f 0000 803f 0000 803f
00000040: 0000 803f 0000 803f 0000 803f 0000 803f
00000050: 0000 803f 0000 803f 0000 803f 0000 803f
00000060: 0000 803f 0000 803f 0000 803f 0000 803f
00000070: 0000 803f 0000 803f 0000 803f 0000 803f
00000080: 0000 803f 0000 803f 0000 803f 0000 803f
00000090: 0000 803f 0000 803f 0000 803f 0000 803f
000000a0: 0000 803f 0000 803f 0000 803f 0000 803f
000000b0: 0000 803f 0000 803f 0000 803f 0000 803f
000000c0: 0000 803f 0000 803f 0000 803f 0000 803f
000000d0: 0000 803f 0000 803f 0000 803f 0000 803f
000000e0: 0000 803f 0000 803f 0000 803f 0000 803f
000000f0: 0000 803f 0000 803f 0000 803f 0000 803f
00000100: 0000 803f 0000 803f 0000 803f 0000 803f
00000110: 0000 803f 0000 803f 0000 803f 0000 803f
00000120: 0000 803f 0000 803f 0000 803f 0000 803f
00000130: 0000 803f 0000 803f 0000 803f 0000 803f
00000140: 0000 803f 0000 803f 0000 803f 0000 803f
00000150: 0000 803f 0000 803f 0000 803f 0000 803f
00000160: 0000 803f 0000 803f 0000 803f 0000 803f
00000170: 0000 803f 0000 803f 0000 803f 0000 803f
00000180: 0000 803f 0000 803f 0000 803f 0000 803f
00000190: 0000 803f 0000 803f 0000 803f 0000 803f
000001a0: 0000 803f 0000 803f 0000 803f 0000 803f
000001b0: 0000 803f 0000 803f 0000 803f 0000 803f
000001c0: 0000 803f 0000 803f 0000 803f 0000 803f
000001d0: 0000 803f 0000 803f 0000 803f 0000 803f
000001e0: 0000 803f 0000 803f 0000 803f 0000 803f
000001f0: 0000 803f 0000 803f 0000 803f 0000 803f
00000200: 0000 803f 0000 803f 0000 803f 0000 803f
00000210: 0000 803f 0000 803f 0000 803f 0000 803f
00000220: 0000 803f 0000 803f 0000 803f 0000 803f
00000230: 0000 803f 0000 803f 0000 803f 0000 803f
00000240: 0000 803f 0000 803f 0000 803f 0000 803f
00000250: 0000 803f 0000 803f 0000 803f 0000 803f
00000260: 0000 803f 0000 803f 0000 803f 0000 803f
00000270: 0000 803f 0000 803f 0000 803f 0000 803f
00000280: 0000 803f 0000 803f 0000 803f 0000 803f
00000290: 0000 803f 0000 803f 0000 803f 0000 803f
000002a0: 0000 803f 0000 803f 0000 803f 0000 803f
000002b0: 0000 803f 0000 803f 0000 803f 0000 803f
000002c0: 0000 803f 0000 803f 0000 803f 0000 803f
000002d0: 0000 803f 0000 803f 0000 803f 0000 803f
000002e0: 0000 803f 0000 803f 0000 803f 0000 803f
000002f0: 0000 803f 0000 803f 0000 803f 0000 803f
00000300: 0000 803f 0000 803f 0000 803f 0000 803f
00000310: 0000 803f 0000 803f 0000 803f 0000 803f
00000320: 0000 803f 0000 803f 0000 803f 0000 803f
00000330: 0000 803f 0000 803f 0000 803f 0000 803f
00000340: 0000 803f 0000 803f 0000 803f 0000 803f
00000350: 0000 803f 0000 803f 0000 803f 0000 803f
00000360: 0000 803f 0000 803f 0000 803f 0000 803f
00000370: 0000 803f 0000 803f 0000 803f 0000 803f
00000380: 0000 803f 0000 803f 0000 803f 0000 803f
00000390: 0000 803f 0000 803f 0000 803f 0000 803f
000003a0: 0000 803f 0000 803f 0000 803f 0000 803f
000003b0: 0000 803f 0000 803f 0000 803f 0000 803f
000003c0: 0000 803f 0000 803f 0000 803f 0000 803f
000003d0: 0000 803f 0000 803f 0000 803f 0000 803f
000003e0: 0000 803f 0000 803f 0000 803f 0000 803f
000003f0: 0000 803f 0000 803f 0000 803f 0000 803f

net.4.weight f4 [256, 256]
-0.28410345 0.08080398 0.24621645 -0.2343358 0.008074969 0.26740777 -0.13881789 -0.25641966
-0.2097831 -0.026678724 0.079136156 0.277272 0.2124799 -0.16962439 0.1956717 -0.15673694
0.37493238 -0.02832979 0.14775524 0.49470538 -0.069739215 -0.18937443 0.19660233 -0.2616639
0.094668835 0.07125724 0.009779273 -0.06907652 -0.26936796 -0.15114653 -1.1385727 -0.20554702
-0.11623111 -0.2413378 0.18221118 -0.049054485 -0.12504803 -0.2416362 -0.0059715156 -0.14993462
0.20926258 -0.15855274 0.16552722 -0.24293476 0.09946263 -0.8044562 -0.00782041 -0.2067285
0.30365595 0.11496066 0.27404884 -0.053921744 -0.10387974 0.2807225 -0.26422644 -0.12540682
-0.25255486 0.2199953 -0.1622477 -0.18847474 0.124640964 0.24413078 0.2266522 0.3789865
0.15795878 -0.33975273 -0.2091352 0.45905337 0.12772486 0.19930227 0.05256468 0.17758061
-0.13714857 0.15436228 0.095184155 -0.14284877 0.35873905 -0.04110749 -0.021020992 -0.10388659
-0.14167307 -0.06864591 -0.02519446 0.14249687 -0.15860216 -0.6149812 0.11945336 0.1477437
-0.082862 -0.15225029 -0.097441494 0.029824827 0.18490426 -0.045595977 0.21169235 0.08973727
0.15842178 0.24050538 0.1413078 0.006184412 -0.29148877 -0.83630264 0.40034103 0.20269687
-0.25621685 0.08664867 0.06616297 0.039772354 -0.12211999 0.04951784 0.19465935 0.09936275
-0.11256232 0.22727558 0.2778344 0.049063727 0.024148 -0.10675192 0.12211523 0.16112466
0.23654078 -0.2538611 0.06632248 0.44189042 0.086015046 0.3485044 0.00075610477 -0.0440774
0.47614303 0.11631496 0.03516423 -0.32500315 0.21455579 -0.0743549 0.20783943 -0.08304355
-0.20234254 -0.061898816 0.15215454 -0.23236322 0.113049075 0.0418153 -0.10405725 0.13027503
0.19083783 -0.026960593 0.4598167 -0.05020194 -0.1030434 -0.11264996 0.15869881 0.147105
-0.022058688 0.19327024 -0.041306563 -0.1928322 0.18265592 -0.06826593 -0.20546243 0.09066895
0.017572202 -0.11713441 0.057309344 0.2259719 -0.16301091 0.19750495 -0.10463148 0.05866415
-0.23219936 -0.32758796 0.0021919762 0.4408402 -0.106036 0.05884928 0.4797689 -0.11521733
0.0050147637 -0.139661 0.07464917 0.051693674 0.32529283 -0.19892476 -0.049827997 0.20592155
0.20666437 0.0534201 0.111753516 0.196491 0.07007268 0.06765038 -0.06580225 0.23337919
0.47883454 -0.08940614 -0.07121193 0.20683955 0.111908466 -0.17150037 -0.2552712 -0.30854377
0.0905728 0.26560256 0.3414237 0.059380136 0.2436313 0.1164367 0.008091878 0.005207126
0.07869661 0.36807138 0.035813455 0.3690506 -0.10319938 -0.3019265 -0.028713616 0.52856696
-0.1282694 -0.017790593 0.20921962 0.17730866 0.39441878 0.061826136 0.40317455 -0.04692445
-0.080370456 0.09957733 0.15844537 -0.17834337 0.086105384 -0.20648584 -0.20932175 -0.005326644
-1.2214867 0.21057238 0.09044258 0.009725516 -0.18482262 0.34250388 -0.17176986 -0.23614302
0.18459721 -0.033178836 0.32743362 0.10988384 -0.09035424 0.20957996 -0.17693117 0.13774896
-0.2615227 -0.18432009 0.16932507 -0.26231062 -0.020812124 0.4066446 0.121614575 0.03292626
00000000: 0276 91be 8f7c a53d 2a20 7c3e b9f5 6fbe
00000010: e04c 043c ace9 883e 4726 0ebe 7049 83be
00000020: 62d1 56be 578d dabc 2312 a23d 98f6 8d3e
00000030: 5594 593e 04b2 2dbe 2a5e 483e a67f 20be
00000040: 23f7 bf3e e013 e8bc 264d 173e 064a fd3e
00000050: 6fd3 8ebd 5feb 41be 1f52 493e d0f8 85be
00000060: bce1 c13d 51ef 913d 3e39 203c fe77 8dbd
00000070: 99ea 89be 28c6 1abe c0bc 91bf eb7a 52be
00000080: 940a eebd 4221 77be 9195 3a3e 5bed 48bd
00000090: 970c 00be 7b6f 77be b4ac c3bb 7688 19be
000000a0: ee48 563e a65b 22be f87f 293e e4c3 78be
000000b0: 10b3 cb3d d7f0 4dbf 2d21 00bc a3b0 53be
000000c0: cb78 9b3e 7f70 eb3d 2150 8c3e 0cdd 5cbd
000000d0: e7be d4bd dcba 8f3e b048 87be a56a 00be
000000e0: df4e 81be 7346 613e 4324 26be 86ff 40be
000000f0: c343 ff3d 6bfd 793e 8417 683e 850a c23e
00000100: f2bf 213e 12f4 adbe 8a27 56be 0b09 eb3e
00000110: 4eca 023e e515 4c3e 104e 573d b1d7 353e
00000120: ad70 0cbe 2511 1e3e e9ef c23d f346 12be
00000130: a5ac b73e 5460 28bd 3734 acbc 7ec2 d4bd
00000140: bf12 11be 3a96 8cbd 9d64 cebc b3ea 113e
00000150: 9b68 22be 686f 1dbf f7a3 f43d 204a 173e
00000160: 8db3 a9bd 80e7 1bbe 688f c7bd 3253 f43c
00000170: 8b57 3d3e d9c2 3abd e1c5 583e 2cc8 b73d
00000180: 5239 223e 0b47 763e feb2 103e 9ca6 ca3b
00000190: 043e 95be ee17 56bf 80f9 cc3e c58f 4f3e
000001a0: db2e 83be dc74 b13d 7480 873d 56e8 223d
000001b0: 0c1a fabd 38d3 4a3d c854 473e b37e cb3d
000001c0: 1387 e6bd eeba 683e 4f40 8e3e 0cf7 483d
000001d0: 07d2 c53c c0a0 dabd 8d17 fa3d ddfd 243e
000001e0: bf37 723e 15fa 81be 15d4 873d 763f e23e
000001f0: a828 b03d 2b6f b23e 5535 463a 818a 34bd
00000200: 05c9 f33e 8a36 ee3d 5e08 103d d066 a6be
00000210: 83b4 5b3e 6247 98bd dcd3 543e bd12 aabd
00000220: e232 4fbe 9d89 7dbd 66ce 1b3e a0f0 6dbe
00000230: 4686 e73d 8546 2b3d f81b d5bd d166 053e
00000240: fe6a 433e 76dc dcbc 186d eb3e 8da0 4dbd
00000250: 6b08 d3bd 06b5 e6bd f181 223e b1a2 163e
00000260: 6cb4 b4bc a2e8 453e 1231 29bd ce75 45be
00000270: 270a 3b3e 02cf 8bbd be64 52be a4b0 b93d
00000280: 94f3 8f3c 2ae4 efbd 34bd 6a3d 2e65 673e
00000290: 55ec 26be bd3e 4a3e 0849 d6bd d249 703d
000002a0: abc5 6dbe 9cb9 a7be 42a7 0f3b cfb5 e13e
000002b0: 6729 d9bd f10b 713d 45a4 f53e 10f7 ebbd
000002c0: e352 a43b 4b03 0fbe aae1 983d bfbc 533d
000002d0: c88c a63e efb2 4bbe 7118 4cbd 19dd 523e
000002e0: d39f 533e 09cf 5a3d 07df e43d f034 493e
000002f0: 4482 8f3d 488c 8a3d 54c3 86bd f4fa 6e3e
00000300: cd29 f53e 911a b7bd 8fd7 91bd bfcd 533e
00000310: 4430 e53d cb9d 2fbe e8b2 82be 73f9 9dbe
00000320: 3b7e b93d 0ffd 873e 16cf ae3e 9638 733d
00000330: 7c7a 793e 5d76 ee3d cc93 043c 8aa0 aa3b
00000340: b02b a13d da73 bc3e 21b1 123d 33f4 bc3e
00000350: 325a d3bd 1c96 9abe d138 ebbc 2a50 073f
00000360: 0e59 03be 94bd 91bc ab3d 563e 6790 353e
00000370: 42f1 c93e 673d 7d3d e56c ce3e da33 40bd
00000380: 4499 a4bd 33ef cb3d 813f 223e a59f 36be
00000390: 0558 b03d 0671 53be 7158 56be 218b aebb
000003a0: ad59 9cbf 49a0 573e f639 b93d c557 1f3c
000003b0: 2442 3dbe ab5c af3e 70e4 2fbe 7acf 71be
000003c0: 0d07 3d3e 88e6 07bd 61a5 a73e c70a e13d
000003d0: a50b b9bd 219c 563e 722d 35be 100e 0d3e
000003e0: 4ee6 85be 68be 3cbe 8d63 2d3e 944d 86be
000003f0: 307e aabc b933 d03e 1011 f93d b0dd 063d

net.4.bias f4 [256]
-0.39951137 -0.2552016 -0.10638821 -0.13696514 -0.11710977 -0.19315986 -0.10416928 -0.08574176
-0.079863586 -0.0921051 -0.10043743 -0.05011027 -0.123292394 -0.06988595 -0.13490789 -0.0480193
-0.103119075 -0.02311931 0.33410138 -0.041850727 -0.061408512 -0.047127713 -0.1837189 -0.15247908
-0.07643945 -0.05569041 -0.044888433 -0.12446313 -0.0769647 -0.088790365 -0.08821956 -0.082260676
-0.015521481 -0.104219764 -0.07360373 -0.1236482 0.5647753 -0.07096824 0.117963 -0.08365285
-0.100953266 -0.1470698 -0.0470647 -0.092550546 -0.079167455 -0.1484593 -0.07086841 -0.09822803
-0.11158923 -0.10782689 -0.07468459 -0.1312116 -0.1173922 -0.073548324 -0.12324377 -0.046075825
-0.12672123 -0.04012681 -0.12671217 -0.07388283 -0.43239495 -0.07253338 -0.13413551 -0.033077627
-0.08589132 -0.096309155 -0.03373546 -0.11290238 -0.06730088 -0.15920658 0.30679035 -0.09720267
-0.0452608 -0.1346388 0.27972636 0.14027154 -0.051434852 -0.10616046 0.14476486 -0.07862525
-0.08116053 -0.0921783 -0.07588178 -0.07609438 -0.059103876 -0.09783006 -0.11382281 -0.07240155
-0.12944238 -0.13087732 -0.061330497 -0.30791765 -0.10249751 -0.08780826 -0.089146115 -0.124896936
-0.15987705 -0.08150339 -0.12998904 -0.096974395 -0.20340136 -0.12058083 -0.14391842 -0.12375462
0.8428705 -0.036903292 -0.0480219 -0.09423852 -0.07681659 -0.061457667 -0.07561707 -0.06074063
-0.08834894 -0.03589716 -0.08638907 -0.2321567 -0.07887854 -0.06690389 -0.07879263 -0.17035085
-0.074631475 -0.024679864 -0.13397588 -0.059100248 -0.11664694 -0.13136774 0.14990854 -0.06750004
0.56871486 -0.12357787 -0.10177834 -0.06383988 0.055791404 -0.07161951 -0.062438574 -0.116337046
-0.19798902 -0.111250885 -0.09679803 -0.088557355 -0.124399975 -0.11149679 -0.025294363 -0.078055605
-0.11179882 -0.1681954 -0.08009052 -0.0542803 -0.1291901 0.31812382 -0.059381273 -0.08127304
0.5901344 -0.11372561 -0.08320901 -0.114483446 -0.06995674 -0.0993366 -0.10823007 -0.13175242
-0.07887114 -0.049862623 -0.10525782 -0.06444013 -0.039980248 0.43452796 -0.12655883 -0.07310221
-0.04560153 0.06863881 -0.12299137 -0.037259556 -0.06081763 -0.068927765 -0.2879418 -0.12989731
-0.013168918 -0.04084986 -0.15148255 -0.047479548 -0.03279064 -0.19660695 -0.09947028 -0.08412439
0.05806471 -0.046851367 -0.093144454 -0.104148306 -0.08827476 -0.07053562 -0.064020924 -0.06857613
-0.021042036 -0.03226679 -0.14274734 -0.08093684 0.72631377 -0.11733977 -0.21516979 -0.084564164
-0.13778025 -0.076703005 -0.03334093 -0.12330295 -0.096397534 -0.119908795 -0.14785671 -0.020207496
-0.1627308 -0.07202281 -0.07319495 -0.084831744 -0.07472794 -0.0834384 -0.40461764 -0.11564698
-0.106995665 -0.60796857 -0.11738654 -0.11090954 -0.10739742 -0.07017745 -0.29209492 -0.13142379
-0.15217862 -0.052903842 -0.066357486 -0.4523928 -0.078177854 -0.32941118 -0.05229158 0.41843286
-0.09966973 -0.11984915 0.097031474 -0.08147855 -0.051526565 -0.07835222 0.05274852 -0.1101786
-0.16115415 -0.12316628 -0.107630655 -0.055201784 -0.06615713 -0.10076555 -0.12480628 -0.07248865
-0.119185634 -0.16540405 -0.099885866 -0.12796915 0.22629331 -0.25164112 -0.03858041 -0.07786599
00000000: c18c ccbe c9a9 82be 10e2 d9bd 9740 0cbe
00000010: 3fd7 efbd b3cb 45be b456 d5bd 6099 afbd
00000020: 858f a3bd 99a1 bcbd 24b2 cdbd 6d40 4dbd
00000030: b980 fcbd 5d20 8fbd 4b25 0abe e3af 44bd
00000040: 1830 d3bd b564 bdbc 560f ab3e ab6b 2bbd
00000050: 7e87 7bbd fd08 41bd cf20 3cbe 7a23 1cbe
00000060: 498c 9cbd a11b 64bd efdc 37bd 87e6 febd
00000070: ab9f 9dbd b9d7 b5bd 75ac b4bd 4978 a8bd
00000080: cf4d 7ebc 2c71 d5bd 8dbd 96bd 443b fdbd
00000090: 1d95 103f cc57 91bd 9696 f13d 2f52 abbd
000000a0: 96c0 cebd 7799 16be eac6 40bd 248b bdbd
000000b0: 8c22 a2bd b705 18be 7523 91bd c72b c9bd
000000c0: e588 e4bd 58d4 dcbd 3cf4 98bd 555c 06be
000000d0: 526b f0bd 81a0 96bd 3b67 fcbd 01ba 3cbd
000000e0: 36c3 01be 035c 24bd d6c0 01be e24f 97bd
000000f0: df62 ddbe 618c 94bd d25a 09be 687c 07bd
00000100: cae7 afbd bc3d c5bd 322e 0abd 5d39 e7bd
00000110: 0bd5 89bd 0d07 23be a013 9d3e 3212 c7bd
00000120: 6363 39bd c1de 09be 4b38 8f3e 58a3 0f3e
00000130: 5aad 52bd a86a d9bd 3d3d 143e 4606 a1bd
00000140: 7e37 a6bd fac7 bcbd e867 9bbd 5fd7 9bbd
00000150: e816 72bd 205b c8bd ef1b e9bd 4447 94bd
00000160: 8b8c 04be b404 06be b035 7bbd 62a7 9dbe
00000170: 37ea d1bd d1d4 b3bd 3d92 b6bd f7c9 ffbd
00000180: cfb6 23be 40eb a6bd d91b 05be 839a c6bd
00000190: 7248 50be 15f3 f6bd 5a5f 13be 1073 fdbd
000001a0: 5cc6 573f e827 17bd 9db2 44bd 2000 c1bd
000001b0: 0452 9dbd 09bb 7bbd 1fdd 9abd 2bcb 78bd
000001c0: 4af0 b4bd e708 13bd c1ec b0bd 7cba 6dbe
000001d0: 128b a1bd e804 89bd 085e a1bd 7470 2ebe
000001e0: 63d8 98bd 6d2d cabc f930 09be 1a13 72bd
000001f0: 97e4 eebd 4485 06be a081 193e 763d 8abd
00000200: 4c97 113f 6516 fdbd 2a71 d0bd 7cbe 82bd
00000210: 8785 643d 40ad 92bd 97bf 7fbd 1e42 eebd
00000220: a2bd 4abe 81d7 e3bd 0c3e c6bd 8f5d b5bd
00000230: 6ac5 febd 6e58 e4bd 2036 cfbc 9edb 9fbd
00000240: c8f6 e4bd 6a3b 2cbe 8006 a4bd 0555 5ebd
00000250: 694a 04be 20e1 a23e c739 73bd 7b72 a6bd
00000260: 0c13 173f f9e8 e8bd 7c69 aabd 4c76 eabd
00000270: 7b45 8fbd fd70 cbbd baa7 ddbd 1bea 06be
00000280: 3187 a1bd c03c 4cbd 6991 d7bd 30f9 83bd
00000290: 54c2 23bd 737a de3e a398 01be 9db6 95bd
000002a0: abc8 3abd 8192 8c3d e6e2 fbbd 7a9d 18bd
000002b0: e81b 79bd 002a 8dbd 1c6d 93be cd03 05be
000002c0: 72c2 57bc 2f52 27bd 3e1e 1bbe ea79 42bd
000002d0: 7a4f 06bd 5553 49be 13b7 cbbd 6849 acbd
000002e0: 43d5 6d3d 38e7 3fbd 85c2 bebd b54b d5bd
000002f0: 66c9 b4bd fb74 90bd 671d 83bd a471 8cbd
00000300: 5960 acbc 2e2a 04bd 5c2c 12be 37c2 a5bd
00000310: b3ef 393f d54f f0bd 7855 5cbe fa2f adbd
00000320: 4416 0dbe 7716 9dbd 8090 08bd 4286 fcbd
00000330: 126c c5bd be92 f5bd c067 17be 318a a5bc
00000340: e7a2 26be b280 93bd 3ce7 95bd 44bc adbd
00000350: f60a 99bd c0e1 aabd 0b2a cfbe 53d8 ecbd
00000360: 8b20 dbbd d4a3 1bbf 5b68 f0bd 8a24 e3bd
00000370: 2ef3 dbbd 32b9 8fbd 778d 95be f593 06be
00000380: b6d4 1bbe b3b1 58bd 6fe6 87bd 07a0 e7be
00000390: b61b a0bd 95a8 a8be b22f 56bd d53c d63e
000003a0: a51f ccbd 7973 f5bd 70b8 c63d 3ade a6bd
000003b0: 850d 53bd 2177 a0bd d50e 583d 51a5 e1bd
000003c0: 9805 25be 9a3e fcbd 766d dcbd 441b 62bd
000003d0: 647d 87bd 2b5e cebd 6f9a ffbd ee74 94bd
000003e0: 9917 f4bd ae5f 29be f690 ccbd 580a 03be
000003f0: 6fb9 673e 1bd7 80be 7e06 1ebd 3478 9fbd
