highway_env_GE_DQN_CLMHA/results/dqn_agent_2.pth (torch, 92336 bytes, 6 tensors)

net.0.weight f4 [128, 40]
000000 8d 54 eb 3b 16 06 33 3c 06 d5 83 3d 3c 8a 73 3d
       0.00718171 0.010926744 0.06437115 0.059458002
000010 a6 d0 b2 bd c0 1c bf bc 56 0c d8 bd 7f b6 90 bd
       -0.08731203 -0.023329139 -0.10549228 -0.07066058
000020 4b 2e 0e be 92 0e b5 bd df 96 f5 3c 20 6d 28 bd
       -0.13884847 -0.0884067 0.029979168 -0.041119695
000030 c1 a3 d2 bd 26 0f 09 be 84 da 27 be e3 fd 82 bd
       -0.1028514 -0.13384685 -0.16391951 -0.06396081
000040 d0 f3 27 bc f9 34 8c 3d 7b a7 32 be a2 14 94 bd
       -0.0102510005 0.06846041 -0.17446701 -0.07230498
000050 8a bd 62 bd 7b a9 27 be a5 61 c9 bd d1 b9 d3 3a
       -0.05535654 -0.16373245 -0.09833077 0.00161534
000060 28 10 cb bd 9e e0 f4 3d 0f e4 11 3e ec 33 36 3e
       -0.09915191 0.11956905 0.14247154 0.17793244
000070 9e 1c 28 be 68 40 d6 bd 91 54 a8 3c 0f 7c fe bd
       -0.16417167 -0.10461503 0.020548137 -0.12426006
000080 22 13 d2 3d cf 61 24 3e 94 c2 18 bd 1b fb 10 be
       0.102575555 0.16052936 -0.03729494 -0.14158289
000090 96 9d db 3d ad d2 e6 bd 52 59 fb 3d 1f de b3 bd
       0.107234165 -0.11270652 0.12272896 -0.087826006
0000a0 10 c3 b7 3f f9 60 b6 3f 51 d3 2a bf 23 0e 1c c2
       1.4356403 1.4248344 -0.66728693 -39.013805
0000b0 a3 79 95 3e 00 aa 05 bc a3 f1 9c bd 52 4e 48 c1
       0.29194364 -0.008158207 -0.07663276 -12.519121
0000c0 74 11 f1 3e 9a fc eb 40 64 73 85 bf da a2 45 41
       0.47083628 7.374585 -1.042584 12.352259
0000d0 49 9b b2 be 55 ee 9e c1 11 b2 93 bf c6 07 cf c0
       -0.34884098 -19.866373 -1.1538717 -6.469699
0000e0 41 90 a1 3f 30 b3 1c c0 60 ee 5c bf 4f 05 10 c1
       1.2622148 -2.4484367 -0.8630123 -9.001296
0000f0 c6 de 2f 40 cd d8 fd c0 1b 3f 15 40 6a 79 9a 40
       2.747972 -7.932715 2.3319767 4.827321
000100 b3 37 8e bf ff e8 1e 41 bf 7d 88 40 df 90 4d 41
       -1.1110748 9.931884 4.26535 12.847869
000110 29 a1 e2 3f 74 a4 00 40 83 b1 ac 3f 27 63 23 be
       1.7705432 2.0100374 1.3491672 -0.15955792
000120 be c5 14 40 4c 61 a7 c1 bb 60 2a 40 2f d8 e4 3e
       2.3245692 -20.922508 2.662154 0.44696185
000130 83 9a 1b 3e bc f5 5f 3d b1 97 1d 3e d4 2b ac 3d
       0.1519566 0.05467771 0.15389897 0.08406797
000140 c8 1a a7 3d 4b 10 0f be 47 3a 84 bd 74 f4 89 bf
       0.08159405 -0.13971059 -0.06456428 -1.0777726
000150 87 93 5b bd e4 90 78 bd 27 84 14 be 0f 26 02 40
       -0.05360749 -0.060685053 -0.14503537 2.033573
000160 d1 0c c4 3e 3f 68 04 be bf 41 00 3e 81 36 1e be
       0.38291028 -0.12930392 0.1252508 -0.15450479
000170 ba db 3b 40 e4 23 ce 3e 26 3a 23 bf 59 bd 9e 3e
       2.935286 0.40261757 -0.637606 0.31003836
000180 cf 83 a1 be 26 6f 24 be 3d 23 f4 bd 7f b3 fa 3e
       -0.31545874 -0.16058025 -0.11920784 0.4896507
000190 d4 d9 8b 3f 15 05 b9 be be d3 2b bd 0e b5 79 3d
       1.0925851 -0.3613669 -0.04194998 0.060963683
0001a0 99 5b ab be 8e 6b 34 3f 3d 27 04 c0 35 8a 71 3f
       -0.3346832 0.70476615 -2.064895 0.9435151
0001b0 b2 34 da be c0 a0 bb ba a2 02 5e 3f 7a 5b b9 bb
       -0.42618328 -0.0014314875 0.8672277 -0.005656657
0001c0 4b 80 19 3f 9f d2 47 be fd 71 c9 bf fe b6 b5 bd
       0.59961385 -0.1951394 -1.5737911 -0.088727936
0001d0 6d 7e 1e 3e c0 13 e4 3c 5f aa 21 3e 60 9c a8 3d
       0.15477915 0.027841449 0.15787648 0.08232951
0001e0 31 30 62 bd a3 63 1f be 4b 49 4b bd d0 0b 70 bd
       -0.05522174 -0.15565352 -0.049630444 -0.058605015
0001f0 f7 5f b5 3c f8 c4 c6 3c ff 7f 04 be 74 45 2f 3e
       0.022140486 0.024263844 -0.12939452 0.17116338
000200 53 bf f8 bd 77 4b 03 bd ff 9b 06 3d c8 ba d5 bc
       -0.12145867 -0.03205439 0.032863613 -0.02609004
000210 53 bd 63 3e f0 f9 03 be 32 ae 15 bc 8c b8 9d 3c
       0.2224019 -0.12888312 -0.00913577 0.019253038
000220 8b 98 06 bd e1 7e f7 bd 00 00 d7 3c 8c 2f 70 bd
       -0.03286032 -0.12084747 0.026245117 -0.058639094
000230 0d 0f 8f 3d 0f 89 b9 3c 92 93 95 bd 6c 84 18 bd
       0.069852926 0.022648362 -0.073035374 -0.037235662
000240 73 50 8a bd 55 30 c1 3d 20 83 1d 3c 62 a8 fb 3d
       -0.06753626 0.09433047 0.009613782 0.12287976
000250 45 86 03 be 96 01 88 bd e2 f2 6e 3b dd 58 2a be
       -0.12844189 -0.066409275 0.0036460687 -0.16635461
000260 4f f5 00 be aa 83 50 3e 10 f0 00 be 6a 74 59 bd
       -0.12593578 0.20362726 -0.12591577 -0.053089537
000270 60 ad 4e bd 80 40 1d 3c 8f 5d 04 be 58 9c 43 bd
       -0.050458312 0.0095978975 -0.12926315 -0.047756523
000280 dc 4b b8 bd 1c fe ed 3d d0 2f 2b 3d bf 06 a7 bd
       -0.08998844 0.11620733 0.041793644 -0.081555836
000290 34 76 70 3d 06 87 d8 3d 35 81 ca 3d 27 07 b4 bb
       0.058706477 0.10572629 0.098879255 -0.0054940167
0002a0 d8 2f 58 bc a0 3a c5 bd 90 6f 81 3d 0c d9 e7 bd
       -0.013195001 -0.096303225 0.06320107 -0.11320695
0002b0 e9 08 aa 3d 80 d8 00 bd 33 16 0e be e7 b3 06 3c
       0.08302481 -0.03145647 -0.13875656 0.008221603
0002c0 59 43 9b bb c2 47 14 be 7e ae e5 bd 6b 51 a1 bd
       -0.004738253 -0.14480498 -0.11214922 -0.07876857
0002d0 99 c8 8c 3d 1a 8b a4 bd 12 70 80 bd 00 b2 7a bb
       0.068741985 -0.08034344 -0.06271376 -0.003825307
0002e0 be 90 a1 3d 38 fd 51 3d 39 e3 19 3e 99 90 8e bd
       0.078889355 0.05126688 0.15028085 -0.069611736
0002f0 88 36 1f be e3 64 2b 3e c4 93 f4 bd 8a dd 65 3c
       -0.15548146 0.16737704 -0.119422466 0.01402987
000300 06 ff fb 3d 12 6f 04 3e 80 99 91 3c 58 a3 c4 3d
       0.12304501 0.12932995 0.01777339 0.09601468
000310 20 bf 1f bd 68 46 51 3d bf 6b 0b 3e 99 f2 be bd
       -0.03900063 0.051092535 0.1361532 -0.093236156
000320 0b 68 d6 bd 9b 91 66 bd c1 86 13 bd a0 39 9f bb
       -0.10469063 -0.056291204 -0.036017183 -0.0048591644
000330 58 fe 1e be 85 dd 0f be 1a 05 1e be 00 21 7c 3d
       -0.15526712 -0.14049347 -0.15431634 0.06155491
000340 16 ad e8 bd 4e 67 9a 3c 20 48 09 be e2 37 c3 bd
       -0.113611385 0.018848088 -0.1340642 -0.09532143
000350 79 d3 46 bd 40 4d 4b bc 36 5f 18 bd 2e 48 67 bd
       -0.04854152 -0.012408555 -0.037200175 -0.05646532
000360 ea 66 21 be 09 7c dc 3d 6a e2 eb 3d 57 b2 11 be
       -0.15761915 0.10765845 0.115177944 -0.14228188
000370 4a df fc 3d b0 09 f8 3d a0 e8 ea bc 1e 9c e8 3d
       0.123472765 0.12111223 -0.028675377 0.11357902
000380 1f 8c ac bd e0 54 f2 bd 8c 63 61 bd 4b 95 10 be
       -0.084251635 -0.11832595 -0.055026576 -0.14119451
000390 d4 90 6f bd d1 db a4 bc 9b ab 6a 3d a8 ef 17 3d
       -0.05848773 -0.020124348 0.057292562 0.03709379
0003a0 b0 34 88 3c 87 64 0c 3e aa 60 ae 3d 8c 77 25 3d
       0.016626686 0.13710223 0.08514531 0.040397212
0003b0 7c 17 a0 bd 57 c6 a2 bd 0c 6f 99 bd 60 af cb bc
       -0.07816979 -0.079479866 -0.07491884 -0.024863899
0003c0 ba 37 7a bd 42 5b c8 3d dc db 07 be 60 1c ac 3c
       -0.0610883 0.09783031 -0.13267463 0.021009624
0003d0 f4 15 78 3d 24 c0 23 bd 18 b4 5b 3d c6 ce a7 3d
       0.06056781 -0.03997816 0.053638548 0.08193736
0003e0 8e 92 1b bd 5b ce 9a bd f5 9d 93 bd 5e 8c 00 be
       -0.037981562 -0.075588904 -0.07207862 -0.12553546
0003f0 65 0e d4 bd 27 0c 8d bd cb 7a c9 bd ee e9 0c be
       -0.10354308 -0.068870835 -0.09837874 -0.13761112

net.0.bias f4 [128]
000000 b2 f9 0d be 3e 2a 05 bf 82 d3 4a be f7 5d 4f 3d
       -0.13864782 -0.5201758 -0.19807246 0.05062672
000010 cd fe 07 be 1f c8 83 bc f6 69 bf bd 53 c7 89 be
       -0.13280793 -0.016086636 -0.09346382 -0.26909885
000020 a4 3a 0b bd 52 ac ab bd ba fb e3 3d 76 e1 c0 bd
       -0.03399147 -0.08382477 0.111319974 -0.09418003
000030 80 d7 f9 bd 40 5f 3e bf 46 ed 58 3e a6 b9 90 be
       -0.121993065 -0.7436409 0.21184263 -0.2826664
000040 f3 17 bd bd 5a 29 d6 be 64 d8 c4 bd a9 45 4d bd
       -0.092330836 -0.41828424 -0.09611586 -0.05011526
000050 71 9c 3f be 02 38 c3 bd 42 7e e2 3c 82 20 84 bd
       -0.18712021 -0.09532167 0.027648095 -0.06451513
000060 f9 16 d9 3d 2d de 7a be b0 c1 20 be 7f d3 a3 be
       0.10600085 -0.24498816 -0.15698886 -0.31997296
000070 fe e8 8a 3d a8 71 7d bd cd 9d 6a be 75 72 95 be
       0.06782721 -0.06187597 -0.22911759 -0.29188886
000080 b5 0a 90 bd 5e db 28 bd ad 6d 1c 3d 08 ee d9 bd
       -0.07033292 -0.04122483 0.038190532 -0.10641104
000090 c5 98 3f bd f4 b8 21 bd 00 1d ac 3d ba 19 80 3d
       -0.04677655 -0.039483026 0.08403969 0.06254907
0000a0 ba 79 d4 3c 6b 02 7a be 15 ca 53 be cc 8e 22 bf
       0.02593695 -0.24414985 -0.20682557 -0.6349914
0000b0 9e 25 03 be 3c 76 ee 3c 63 66 6a bd 9f de 33 3f
       -0.12807319 0.029109113 -0.05722655 0.7026157
0000c0 cc 87 c0 be 5b fc 1a 3d 3f ac 6c be c0 6d cf bb
       -0.37603605 0.03783832 -0.23112582 -0.006330222
0000d0 7e f1 04 be 41 db 1c be 80 3a 53 be a7 24 ce bd
       -0.12982747 -0.15318014 -0.20627785 -0.10065585
0000e0 5a bf 4e be 08 44 a0 3c e4 79 11 be 8b d1 cd bd
       -0.20190182 0.01956369 -0.14206654 -0.10049733
0000f0 5e 74 13 be 7d 96 72 be 24 0a 3a be d0 65 05 bd
       -0.1439986 -0.23690219 -0.18167931 -0.0325678
000100 49 f5 83 be 80 1c e6 bb 30 0f ca 3d b5 e3 a4 bc
       -0.25773075 -0.0070224404 0.09866178 -0.02012811
000110 20 ef 68 be 2c 9f 71 3d e2 68 f0 bd 2b d4 f3 bd
       -0.22747469 0.05898969 -0.11738755 -0.11905702
000120 8c 5f 39 bd 1a 12 5b be e6 ec 8a 3d 4a 5b f7 3d
       -0.045257136 -0.21393624 0.06783466 0.12077959
000130 21 b5 04 be f4 b0 49 bd dd 30 bd be 77 eb 6f be
       -0.1295972 -0.04924102 -0.36951342 -0.23429666
000140 cf 69 83 be 95 5c 83 be 33 33 2f 3d 41 4f a7 3b
       -0.25666663 -0.25656572 0.042773437 0.0051058833
000150 5f 5a 06 be 63 0c 24 be d0 0e 5f be e3 9e e8 bd
       -0.13120411 -0.1602035 -0.21782994 -0.1135843
000160 d4 2d d0 be ed 54 44 bf 6c 88 9c 3d 11 65 a5 be
       -0.40659964 -0.76692086 0.07643208 -0.3230367
000170 18 dc 0a 3d 11 8f 4d bd 60 c0 e6 bc ef 0f 62 3e
       0.033901304 -0.050185267 -0.028167903 0.2207639
000180 62 48 9c bc 48 40 90 3c ce ba b9 3d 30 ab d0 bb
       -0.019077484 0.017608777 0.09068833 -0.0063680634
000190 79 51 80 bd 2e 4f ce 3d 79 c4 17 be 1b 9b ab 3c
       -0.0626554 0.10073696 -0.14821042 0.020947983
0001a0 13 86 d6 bd 90 71 4f bd ea 6f c2 be a6 28 b4 bd
       -0.104747914 -0.05064541 -0.3797601 -0.087968156
0001b0 98 22 7d bd b8 5e 37 3c ea 51 cf 3d 97 09 11 be
       -0.06180057 0.011192016 0.10123046 -0.14163814
0001c0 b8 82 82 3c 14 2c 8f bd 54 d9 bd 3d 15 be 58 be
       0.015931472 -0.06990829 0.09269968 -0.2116626
0001d0 87 b3 0f 3e c9 c5 50 3d 40 dc c2 3d 08 d8 15 3a
       0.14033328 0.050969873 0.095146656 0.000571609
0001e0 46 27 b9 be cd 6e 18 be af 50 0f be 55 ec 14 be
       -0.36162776 -0.14886017 -0.13995622 -0.14543279
0001f0 b8 91 df bd 56 f4 6e 3c f5 bc 9e 3d 69 2f 19 bd
       -0.109164655 0.014584621 0.077508844 -0.03739873

net.2.weight f4 [128, 128]
000000 41 5a a1 3d 07 b4 4d bd c4 6f c6 be 2f fc 93 bd
       0.07878543 -0.050220516 -0.38757145 -0.072258346
000010 31 b2 4c bd d4 d9 b7 3c e2 a4 63 3d 2f ac 9d bd
       -0.049974624 0.022442736 0.055577166 -0.07698857
000020 82 cd 6e 3d 10 29 a4 bd a3 e1 94 3d ce fa 29 bd
       0.058301456 -0.080156446 0.07269599 -0.04149895
000030 e6 85 a0 be d7 fd ab bd f7 e4 1e be f5 29 32 be
       -0.31352156 -0.083980255 -0.1551703 -0.17398818
000040 84 d2 b7 3d 4f 9f c5 be 76 8e 5c 3d 98 26 5d 3c
       0.089756995 -0.38598105 0.0538468 0.013497971
000050 14 2e 5a bd 59 1c 2b bd 08 2e 07 3c 8c f2 05 3d
       -0.0532666 -0.04177508 0.008250721 0.032702014
000060 82 90 a0 bd e5 29 43 be a9 f2 4b 3c c7 c1 a1 bd
       -0.07840063 -0.1905895 0.012447991 -0.07898288
000070 46 9b 4d 3d 79 21 af 3d 71 4b 41 be 8b 3c f0 bb
       0.05019691 0.08551306 -0.18876435 -0.007331436
000080 90 2d 1a bd 2e 31 8b bd f0 cb a3 bc 88 e8 0a bc
       -0.037641108 -0.0679649 -0.019994706 -0.008478291
000090 80 de 49 3c a0 12 d0 bc f0 ec e3 bb 60 97 00 3d
       0.012321115 -0.025399506 -0.0069557354 0.031394362
0000a0 25 80 94 be 4f 68 85 bd d6 10 8b bd 37 4e 04 bd
       -0.29004017 -0.06514036 -0.067903206 -0.032301154
0000b0 e4 64 e4 3e 0f af 4e bd c6 35 93 bd d2 61 c2 bd
       0.44608223 -0.050459918 -0.07187991 -0.09491314
0000c0 1b 33 98 bd ca 06 5e 3d 5e 56 ed bc 10 29 c7 3b
       -0.074316226 0.054205693 -0.028971847 0.006077893
0000d0 88 32 37 3d 92 49 2f bd 85 01 dd bd 92 a0 b5 bd
       0.044725925 -0.04279477 -0.107913055 -0.08868517
0000e0 9c c4 00 3d 5b 77 01 bd 6a 11 35 3d 30 cf be bd
       0.0314375 -0.031607967 0.04420606 -0.09316862
0000f0 4d f3 ab 3d a3 8c 07 be 08 46 a4 be e8 dd 18 bc
       0.08396015 -0.13237242 -0.3208468 -0.00933025
000100 a3 73 c8 3c a0 44 76 bb a8 fe eb 3c 90 54 1b 3c
       0.024469202 -0.0037577525 0.028807953 0.0094806105
000110 95 74 99 3d 38 6c f2 bc b6 71 e3 bc 40 c9 96 ba
       0.074929394 -0.029592618 -0.027764183 -0.0011504069
000120 c1 31 80 bd 24 b0 83 be cd f0 90 3d d0 50 96 3b
       -0.0625949 -0.25720322 0.07077179 0.0045872703
000130 2c 79 71 bd e8 1d 97 be 53 8d 60 be 8b a1 23 be
       -0.05895345 -0.29515004 -0.21928911 -0.15979593
000140 ff 91 1f be 95 b8 8f 3d 8c 03 c9 3c d5 fb 41 bd
       -0.15583037 0.07017628 0.024537824 -0.047359306
000150 3c 6e 20 be 2c f2 89 bd 5c df 13 3d 2a 53 14 bd
       -0.15667051 -0.06735644 0.036101684 -0.036212124
000160 8b 17 cf 3b 0f de 0e be 30 bc ab bb 21 16 a5 3e
       0.006319945 -0.13951896 -0.0052409396 0.32243446
000170 6e 29 41 3d 2d 25 a3 bd 0d bc 91 3d a1 83 69 be
       0.04715865 -0.07966075 0.07115946 -0.22804119
000180 46 15 6e bd 90 70 58 be c0 6e a5 bb c9 45 ab bd
       -0.058125757 -0.21136689 -0.005048603 -0.0836292
000190 c0 c9 4e 3b 20 00 3f 3c f5 f5 a7 bd ee c0 a0 bd
       0.0031553358 0.011657745 -0.082012095 -0.078492984
0001a0 47 5c 9e bd 52 10 b8 be c3 ac af bb 74 6b 0e bd
       -0.07732444 -0.3594995 -0.005361171 -0.034770444
0001b0 ff e1 a2 bd e8 2f da 3c a8 b4 20 bc a7 d1 ac 3d
       -0.079532616 0.026634172 -0.009808697 0.084384255
0001c0 d0 a5 a6 3c 54 b6 88 bd 6b e2 b3 3d fa 36 86 bc
       0.020342737 -0.06675401 0.0878342 -0.016383637
0001d0 1a 6c 9c bd 2d d2 ed bd b0 cf e0 bb 58 50 39 bd
       -0.07637806 -0.116123535 -0.006860696 -0.045242637
0001e0 e2 c4 13 bb 82 f4 c7 bd da 74 af bd 3e 29 3b 3d
       -0.0022547771 -0.09763433 -0.085672095 0.04569363
0001f0 b1 a4 b0 be af f0 b4 3d 2b 6b 1b 3e 4e e4 ec bd
       -0.3450065 0.08834969 0.151776 -0.11566983
000200 88 22 e5 3c 63 af 98 bd ce 4c fd bc 76 d7 8b bc
       0.027970567 -0.07455327 -0.030920412 -0.017070513
000210 9a 4b 3b 3c f1 23 18 bd 59 ef 93 3d e7 e7 a7 3d
       0.011431599 -0.03714365 0.07223386 0.08198529
000220 63 7e 52 bd c3 af c4 bd e2 4c 6d 3d 3f 89 32 be
       -0.051390063 -0.096038364 0.05793465 -0.17435168
000230 53 97 cb bc 4d 72 91 be d6 88 e0 bd 27 a9 13 be
       -0.02485243 -0.28407517 -0.109635994 -0.14419995
000240 1a e7 71 3b 6d 6d 35 bd 56 ac cf 3c 89 7c 55 bd
       0.003691143 -0.04429381 0.02535073 -0.05212072
000250 f0 c5 a3 3b 06 9f 43 3d 28 cf 6e bd 90 b5 3e 3c
       0.004997961 0.04775908 -0.05830303 0.011639968
000260 d3 79 05 3c bf a0 a3 bc 9e e8 b4 bd ad e6 52 3d
       0.008146721 -0.01997411 -0.08833431 0.05148952
000270 4a d1 67 3d 8b cb ad 3d bb 9c 05 be 2a 64 f5 3b
       0.056596078 0.08486088 -0.13048069 0.007488747
000280 96 e0 44 3d 60 82 a5 bc 40 56 c3 ba e0 75 8c bb
       0.048065744 -0.02020377 -0.0014903024 -0.0042865127
000290 b0 32 a1 3c 37 e2 98 3d 7a fa 17 3d a2 f3 8b bd
       0.01967749 0.07465022 0.037104107 -0.06833579
0002a0 00 be d8 bd 93 3d 70 bd 3e e7 a8 bd 5b 1f cf bc
       -0.105831146 -0.05865247 -0.08247231 -0.025283506
0002b0 46 e3 36 bd 7e cf d3 bc 1a e2 f4 bd 9f 2b 10 bd
       -0.04465034 -0.025855776 -0.11957188 -0.03519785
0002c0 4b da df bd f9 1e 04 3d c9 fe 42 bd 47 84 6f bd
       -0.10930308 0.0322561 -0.047606263 -0.05847576
0002d0 95 6d 17 bd 9f 0f 0b bd 3a db 2b 3d e0 21 b8 3c
       -0.03696974 -0.033950444 0.041957118 0.02247709
0002e0 11 d2 fb bd 7a cb 93 bd e6 06 76 3d a9 e1 36 bc
       -0.12295926 -0.072165444 0.060065173 -0.0111622
0002f0 af f1 3b 3d e7 54 a8 bb 3c b5 6a bd bc 32 f8 bc
       0.045884784 -0.0051370743 -0.057301745 -0.03029763
000300 41 26 30 bd 02 92 11 3d 02 84 a6 3d 3b 9b a8 b9
       -0.04300523 0.035539635 0.08130647 -0.00032159113
000310 73 34 68 bd 76 5f 83 bd 8d 75 9e 3d 80 7e 23 3a
       -0.056690644 -0.06414692 0.07737265 0.00062368065
000320 50 90 df bc 97 ae c2 bd f7 38 a1 3d 04 bf f3 3c
       -0.027290493 -0.095059566 0.07872193 0.02975417
000330 1a ed 4f 3d e9 b5 e8 bd 9c 2a b8 bd 01 57 88 bd
       0.050763227 -0.113628216 -0.08992502 -0.0665722
000340 c5 8c 04 bd ce 39 0f bd b6 1d de bd a8 70 6a 3c
       -0.03236081 -0.034967236 -0.10845511 0.014309086
000350 43 34 ad 38 fc 87 15 3d c7 29 05 3c 56 e8 a5 3c
       8.259017e-05 0.036506638 0.008127636 0.020252388
000360 88 b6 54 3d 28 ae ce bd 30 28 96 bd 5e 58 94 bd
       0.051931888 -0.100918114 -0.07331884 -0.07243417
000370 20 7a 10 bb da dc 76 bd 5b 17 70 bd 00 25 2d be
       -0.0022045448 -0.060269214 -0.058616024 -0.16908646
000380 2c 1a a7 3c de aa 25 3c 5a 02 18 bd d7 99 75 bd
       0.020398222 0.010111539 -0.037111618 -0.059961166
000390 70 af 0d 3c 9e 7d 9f bd e6 de 9e bd 17 59 e5 3c
       0.008647785 -0.077876315 -0.07757358 0.027996583
0003a0 84 73 06 3d ed d5 7f bd 32 1d 7f bd 37 f6 30 be
       0.032825008 -0.062459875 -0.062283702 -0.17281424
0003b0 5c d0 9f 3c 8a 81 b4 bd 00 c9 25 bc 28 fc bb bc
       0.019508533 -0.0881377 -0.010118723 -0.022947386
0003c0 c0 6f df 3c 2a 7a de bd bb 33 76 bd 67 79 04 bd
       0.027274966 -0.10863145 -0.060107928 -0.03234234
0003d0 54 8d 01 bd e3 29 3b bd 7e e6 49 3d 54 53 7f bd
       -0.03162892 -0.045694243 0.04929208 -0.062335327
0003e0 9a 5a 0a 3d 81 e7 df bd c1 b6 00 bd 60 d7 5a 3c
       0.03377781 -0.10932828 -0.031424288 0.013357013
0003f0 4a 52 2f bd d2 b6 ba bd c4 ff 0c be 62 25 5f 3d
       -0.042803086 -0.091169015 -0.13769442 0.05447901

net.2.bias f4 [128]
000000 98 ed 07 bf d0 4d a6 be 4c 9b 25 40 89 76 ae be
       -0.53096914 -0.3248124 2.5876036 -0.3407481
000010 80 e9 a4 bf b9 48 0f bf 4b 60 5e c0 f4 69 1f be
       -1.2883759 -0.5597034 -3.4746273 -0.15567762
000020 32 16 e6 be e4 d9 43 be fd a7 10 bf 68 cf 1c bf
       -0.4493881 -0.19126087 -0.5650633 -0.61253977
000030 a8 52 89 c0 b1 12 bd bf 65 25 ed 3f 37 3a f0 40
       -4.29134 -1.4771329 1.8527037 7.5071063
000040 49 ba 60 be 1b 9b be be c8 16 7d be cb ef b5 be
       -0.21946062 -0.3722771 -0.24715722 -0.3553451
000050 62 d3 0c 40 2d 6b 96 be e8 2f 56 c0 db 21 8d be
       2.2004018 -0.29378644 -3.346674 -0.27564892
000060 d2 c9 74 be 0e 16 ac 40 e1 29 0b 41 65 b7 07 bf
       -0.23905113 5.377692 8.697724 -0.5301421
000070 c6 81 00 bf 88 2f 21 bf 66 e1 08 bf ed a6 7e 41
       -0.5019802 -0.6296315 -0.5346893 15.915753
000080 8d e8 59 c0 2c 56 a1 be 5e f8 b9 bf 57 2f fb be
       -3.4048188 -0.31511056 -1.4528921 -0.49059555
000090 fa ab 3b 3f 74 f3 07 40 ae 97 0b bf bc 03 c8 bf
       0.7330929 2.1242342 -0.5452832 -1.562614
0000a0 7f 38 eb be bb 9e 20 c0 37 50 76 c0 8c ce 8c 40
       -0.4594154 -2.5096881 -3.848646 4.4002132
0000b0 b0 8e 27 bf cc 66 42 bf 18 e8 71 40 c1 82 ee 40
       -0.654521 -0.75938106 3.7797909 7.453461
0000c0 cc ec ef be 68 5d 4b 40 38 56 2f 40 90 aa 97 3f
       -0.4686035 3.177576 2.7396374 1.1848927
0000d0 fd cb 00 c0 5c f4 19 be e2 8b 83 bf 6e ad d2 be
       -2.0124505 -0.15034622 -1.0277064 -0.4114794
0000e0 3c 5d 0c 40 64 35 28 40 bb 1e 98 be 51 16 97 be
       2.1931906 2.6282587 -0.29710945 -0.29509214
0000f0 6b 36 8d bd 1a 92 13 bf 87 74 ba be ed 3d bc bf
       -0.06895145 -0.5764481 -0.36417028 -1.4706398
000100 17 10 65 be 83 b3 13 bf 3f 8a 52 3f 50 13 aa be
       -0.22369419 -0.5769579 0.82242197 -0.3321786
000110 3b df 93 bf 7d 64 4e c0 be db 95 be 40 4d 07 40
       -1.15525 -3.2248833 -0.29269212 2.11409
000120 ce a6 a7 be c7 6c 70 bf 24 c4 0d bf 5f f9 56 40
       -0.3274445 -0.9391598 -0.5537741 3.3589704
000130 90 6c 5f bf 6c fd 40 bd 5d d4 6a bf 26 ee dd 40
       -0.8727503 -0.047116682 -0.9173029 6.935321
000140 33 a6 79 be f9 7a 01 40 c5 5f b7 bf ef 85 2b be
       -0.24379806 2.0231307 -1.4326102 -0.1675031
000150 6f 4c b1 be 57 a1 4d be eb a1 85 c0 e7 39 07 c1
       -0.34628627 -0.20081078 -4.1760154 -8.451636
000160 c2 76 e6 bf ca cb 8c be 4f 4f 03 41 22 e5 01 3f
       -1.8004992 -0.2749923 8.206862 0.50740254
000170 19 59 ac 40 14 44 e5 40 10 d5 33 40 b7 3f a7 bf
       5.385876 7.1645603 2.8098793 -1.3066319
000180 d3 d0 0d c0 b7 27 a0 be 86 48 3b 40 4d ef c1 bf
       -2.2158706 -0.312803 2.9263015 -1.5151154
000190 8f b7 b7 41 fa 09 34 40 6d 2d 8c be 7b 07 11 bf
       22.964628 2.813109 -0.27378407 -0.5665204
0001a0 fc de 0e bf b2 13 35 41 ad 70 08 be e2 6d 99 be
       -0.55809 11.317308 -0.13324232 -0.29966646
0001b0 3a fa 27 c0 de 54 84 40 c1 a9 23 bf 10 ad 3c be
       -2.6246476 4.13536 -0.639309 -0.18425393
0001c0 f2 8a 9f c0 59 74 1b bf 35 3b ae 40 26 84 34 be
       -4.985711 -0.6072441 5.4447274 -0.17628536
0001d0 bd 44 1e bf aa 06 eb be fd 87 51 3f 8a 4c 71 bf
       -0.61823636 -0.45903522 0.81848127 -0.94257414
0001e0 1d b0 a5 be fb 52 23 40 c7 99 34 bf c3 6d c8 be
       -0.32360926 2.5519397 -0.70547146 -0.39146242
0001f0 11 28 8f c0 e6 a1 bd bf 78 09 42 bc 7a 4f 57 be
       -4.473641 -1.4815032 -0.011843078 -0.21026412

net.4.weight f4 [5, 128]
000000 a5 ed af 3d 09 84 83 3d 10 2c 9d c0 38 ff 41 3d
       0.08590249 0.06421668 -4.9116287 0.047362536
000010 07 df 15 c0 29 26 b1 3d f8 66 07 c0 c2 6e 82 bd
       -2.3417375 0.086498566 -2.1156597 -0.063687816
000020 05 d8 aa 3d 40 3b f1 3d 98 33 01 c0 29 1d 24 3f
       0.08341984 0.11778879 -2.018774 0.64106995
000030 3d d0 b7 bf 91 44 df 3e 60 ff 5d 40 e2 dc 16 40
       -1.4360424 0.43607 3.4687119 2.3572316
000040 56 16 e0 3d 83 d4 00 be b5 9c c2 bc 96 31 2e bc
       0.1094176 -0.12581067 -0.023756364 -0.010631939
000050 56 27 86 40 77 3c 27 3e fc 5c 81 c0 e1 2c 07 3e
       4.1923018 0.1633166 -4.0426006 0.13200714
000060 df c9 93 3d 7a d7 38 40 24 30 bc 3f 8e 03 02 3d
       0.07216238 2.8881516 1.4702191 0.03174167
000070 8d bb 5e 3b 72 ee 4f be 7b 00 10 be 24 3a 28 40
       0.00339863 -0.20305803 -0.14062683 2.6285486
000080 d5 b3 9c bf e4 a6 99 3f c2 b1 5e bf 48 6f a1 3e
       -1.224238 1.2004056 -0.86989987 0.31530213
000090 ab b7 0d be 2a d7 e7 3e 9c 1c 9b 3d 9d 2c 00 be
       -0.13839595 0.45281345 0.07573816 -0.12517019
0000a0 23 54 44 3e 0b f5 cb 3f 79 e6 0b c0 23 f0 24 40
       0.1917272 1.5934156 -2.185942 2.5771568
0000b0 7a d9 06 c0 27 24 09 3e ec 59 48 40 27 46 90 40
       -2.1070237 0.13392697 3.1304884 4.5085635
0000c0 58 87 58 c0 71 b9 17 c0 91 21 9e 3f e2 82 28 40
       -3.3832607 -2.3706934 1.2353994 2.6329885
0000d0 d5 64 c7 3f 16 9a 87 3f a7 4c 0a c0 3d 4e 62 bd
       1.5577646 1.0593898 -2.1609285 -0.055250395
0000e0 dc 3b 34 c0 26 46 ad 3f 71 1e d8 bd bc 5e 4f 3e
       -2.8161535 1.3537033 -0.10552681 0.20250982
0000f0 6a de b4 3d da 44 9d be fb 9c 0c 3a 09 44 15 3f
       0.088314846 -0.30716592 0.0005363968 0.5830694
000100 eb 2d ba bd d7 a7 04 c0 f5 13 f3 3e 76 b3 40 c0
       -0.090907894 -2.0727441 0.47476164 -3.0109534
000110 60 68 6c bf 07 a7 e7 bf 90 86 04 bc 37 91 6d 40
       -0.92346764 -1.8097848 -0.008088723 3.7119882
000120 db 2d 2f 3d 9a 26 31 c0 51 96 0d be 9c e2 8b bf
       0.04276834 -2.767981 -0.13826872 -1.0928531
000130 c7 6e 5d c0 21 34 b1 bd a2 e5 0c 3f fd 80 46 40
       -3.4598863 -0.08652521 0.5503789 3.1016228
000140 5c 50 ae 3d b1 35 60 be ad 67 1d be e2 31 c7 bf
       0.08511421 -0.21895482 -0.1537158 -1.5562098
000150 85 d4 94 3f f6 bc e5 bc ed a5 6e c0 7f 4f d5 bf
       1.1627356 -0.028044205 -3.7288773 -1.6664885
000160 6a db 9d 3f 9b 06 c6 3d bb b6 58 40 f8 cb 30 c0
       1.2332585 0.09669229 3.386153 -2.7624493
000170 af 08 33 40 f8 37 12 40 0d dd 28 40 9c 76 ba 3f
       2.797405 2.284666 2.6384919 1.4567447
000180 41 3a be c0 07 df 96 3c d4 58 75 be 0b 57 0a c0
       -5.944611 0.018416895 -0.23959666 -2.1615627
000190 11 94 74 40 be 1c 3d 40 b0 61 fe 3b 2f 97 31 3e
       3.8215373 2.9548793 0.00776311 0.17342828
0001a0 98 e2 e0 3c 73 c4 85 40 70 c5 e3 3d 3a fe cd 3c
       0.027451798 4.1802306 0.111216426 0.025145639
0001b0 9a 28 17 40 ad 19 b9 c0 24 83 e1 3d 66 69 82 3c
       2.3618531 -5.7843843 0.11011341 0.015919399
0001c0 ee 26 aa bf 9e 24 99 bd 03 52 24 40 a2 26 5b 3d
       -1.329313 -0.07477687 2.5675056 0.05350364
0001d0 45 35 89 3f 48 6c 4e 3d b6 32 53 bf 99 f9 e7 3f
       1.0719382 0.050396234 -0.82499254 1.8123046
0001e0 cc f9 ea 3c cc 03 34 40 d2 78 36 40 61 a6 bf bd
       0.028683566 2.8127317 2.8511243 -0.09357906
0001f0 0f 3b f7 bf 04 c9 af 3f 32 fd b3 be 17 e6 10 3e
       -1.9314898 1.373322 -0.3515411 0.14150272
000200 e7 20 15 be 7c 99 7b bc 52 65 83 c0 fc c2 fa bc
       -0.14563332 -0.015356418 -4.106118 -0.030610554
000210 4b 48 11 c0 96 da a3 3c 23 33 e7 bf a4 fe 8b bc
       -2.2700374 0.02000169 -1.8062481 -0.017089196
000220 29 2d e5 3d cd 6c 65 be 0a 50 d9 bf 6e 9b 4c 3e
       0.11190254 -0.22404785 -1.6977551 0.19981167
000230 6d 44 ce bf 62 6c ba bd 7e 89 a1 40 d2 af 28 40
       -1.6114632 -0.09102704 5.0480337 2.6357312
000240 a4 88 d6 3c a9 37 a9 3d 5c a0 bc bd fa ad f2 bd
       0.026188202 0.082625695 -0.092102736 -0.1184959
000250 3f 90 83 40 b8 2e a5 bd f9 94 a3 c0 dc 17 c7 bc
       4.111358 -0.080655515 -5.111935 -0.02430337
000260 97 18 1f 3e c0 de 41 40 ba 95 b7 3f 7a 3d 3e be
       0.15536724 3.0292206 1.4342568 -0.18578139
000270 06 0c e0 3d d2 5b 05 bd 3a b8 8a bd 14 fb 2b 40
       0.10939793 -0.03255827 -0.0677342 2.6871996
000280 4a 9b 02 c0 fe cc e4 3f e1 41 65 bf 41 35 fc 3d
       -2.040728 1.7875059 -0.8955365 0.12314845
000290 4b 26 cc 3f 4e e0 cd 3f 1f 1c b0 bb 61 28 0e 3c
       1.5949186 1.6084077 -0.005374446 0.008676619
0002a0 9a 90 36 3e 4b 14 64 3f 32 a8 ed bf cb b0 e6 3f
       0.17828599 0.89093465 -1.8566954 1.8022703
0002b0 68 97 c9 bf 86 82 84 bd e8 a1 65 40 b0 e9 9a 40
       -1.574933 -0.06470208 3.588007 4.8410263
0002c0 30 9c a3 c0 7e 48 04 c0 e0 a8 82 3f f3 32 25 40
       -5.112816 -2.0669246 1.0207787 2.5812347
0002d0 b4 6a 70 3f d1 32 00 3f cd 0f dc bf 00 d6 88 be
       0.93912816 0.5007754 -1.7192322 -0.2672577
0002e0 2e f0 18 c0 e4 62 95 3f 88 72 30 be 1f 7b be 3d
       -2.3896594 1.1670804 -0.1723119 0.09300827
0002f0 56 2e 48 bd 11 af 3b c0 07 77 87 be 25 d7 94 3e
       -0.048872314 -2.9325602 -0.26457998 0.29070392
000300 c9 b9 b9 bd 4a 95 37 c0 60 4c 98 3f 93 a5 1b c0
       -0.09068639 -2.868487 1.1898308 -2.4319808
000310 d0 f4 1c bf dc 78 af c0 50 be ee 3d 3b 1e b3 40
       -0.61311054 -5.4835033 0.11657393 5.5974402
000320 62 10 bf 3c 61 73 c1 bf c0 10 d8 3d ae fe b3 bf
       0.023323242 -1.5113336 0.1055007 -1.4062097
000330 4e 45 80 c0 cf 4d b1 bd e6 ee 8c be 15 3a 8c 40
       -4.00846 -0.08657419 -0.27526015 4.38209
000340 3d 55 05 3d 75 01 ee 3f db 46 ca 3e bf 93 7c c0
       0.032551993 1.8594195 0.39507183 -3.9465177
000350 98 8a 01 3d 6a 15 19 3d 0c 6a 51 c0 04 ee d6 bf
       0.031626314 0.037373938 -3.2720976 -1.6791387
000360 bf ff 19 3f 52 98 d9 bd 98 b4 48 40 ef 2a 62 c0
       0.6015586 -0.10624756 3.1360226 -3.5338705
000370 cc 6a 28 40 eb 7c 12 40 02 59 45 40 b6 f9 ae 3f
       2.6315184 2.2888744 3.0835576 1.3669956
000380 e0 af ce c0 88 16 85 bd 0b 18 87 3f 0a 7c 82 c0
       -6.458969 -0.06498438 1.0554212 -4.0776415
000390 80 aa d9 40 46 21 14 40 2b 1d 05 3e 07 fb 3b bd
       6.802063 2.3145308 0.12999408 -0.045893695
0003a0 b5 e6 d4 3c 1f 6c 80 40 32 e6 7c 3d 4d 7c a3 bc
       0.025988916 4.0131984 0.06174297 -0.019956732
0003b0 8f 66 69 40 1e f6 05 c1 ba ba 73 3e 36 29 a4 bd
       3.6468847 -8.372587 0.238017 -0.08015673
0003c0 ad 0d 9d bf fe a9 20 3e 24 22 66 40 b8 bb f9 bd
       -1.2269799 0.15689847 3.5958338 -0.12194008
0003d0 76 0c cc 3d d2 de 0c bd 1b f6 6e 3e 50 38 22 40
       0.09963314 -0.034392186 0.2333607 2.534687
0003e0 8b ba c5 3d 00 e7 93 40 d1 3e 73 40 cc 83 9f bd
       0.09654721 4.6219482 3.800709 -0.0778881
0003f0 2e 1e d0 bf 14 18 84 3e 89 f6 f6 bd d0 33 60 3d
       -1.625921 0.2579962 -0.120587416 0.054736912

net.4.bias f4 [5]
000000 61 88 67 41 6a e0 d8 40 d9 1f 1c 41 f5 7f 0e 41
       14.470796 6.7773943 9.757775 8.9062395
000010 2e da a0 40
       5.0266333
